program(1.0)
[buildInfo = dict<tensor<string, []>, tensor<string, []>>({{"coremlc-component-MIL", "5.33.5"}, {"coremlc-version", "1877.40.3"}})]
{
    func main<ios16>(tensor<fp32, [1, 3, 480, 480]> image) {
            tensor<fp32, []> image__scaled___y_0 = const()[name = tensor<string, []>("image__scaled___y_0"), val = tensor<fp32, []>(0x1.010102p-8)];
            tensor<fp32, [1, 3, 480, 480]> image__scaled__ = mul(x = image, y = image__scaled___y_0)[name = tensor<string, []>("image__scaled__")];
            tensor<int32, []> var_19 = const()[name = tensor<string, []>("op_19"), val = tensor<int32, []>(1)];
            tensor<int32, []> var_20 = const()[name = tensor<string, []>("op_20"), val = tensor<int32, []>(2)];
            tensor<int32, [2]> var_58 = const()[name = tensor<string, []>("op_58"), val = tensor<int32, [2]>([2, 2])];
            tensor<int32, [2]> var_60 = const()[name = tensor<string, []>("op_60"), val = tensor<int32, [2]>([1, 1])];
            tensor<string, []> input_1_pad_type_0 = const()[name = tensor<string, []>("input_1_pad_type_0"), val = tensor<string, []>("custom")];
            tensor<int32, [4]> input_1_pad_0 = const()[name = tensor<string, []>("input_1_pad_0"), val = tensor<int32, [4]>([1, 1, 1, 1])];
            tensor<string, []> image_to_fp16_dtype_0 = const()[name = tensor<string, []>("image_to_fp16_dtype_0"), val = tensor<string, []>("fp16")];
            tensor<fp16, [32, 3, 3, 3]> model_model_0_conv_weight_to_fp16_palettized = constexpr_lut_to_dense()[indices = tensor<uint8, [864]>(BLOBFILE(path = tensor<string, []>("@model_path/weights/weight.bin"), offset = tensor<uint64, []>(64))), lut = tensor<fp16, [256]>(BLOBFILE(path = tensor<string, []>("@model_path/weights/weight.bin"), offset = tensor<uint64, []>(1024))), name = tensor<string, []>("model_model_0_conv_weight_to_fp16_palettized"), shape = tensor<uint32, [4]>([32, 3, 3, 3])];
            tensor<fp16, [32]> model_model_0_conv_bias_to_fp16 = const()[name = tensor<string, []>("model_model_0_conv_bias_to_fp16"), val = tensor<fp16, [32]>(BLOBFILE(path = tensor<string, []>("@model_path/weights/weight.bin"), offset = tensor<uint64, []>(1600)))];
            tensor<fp16, [1, 3, 480, 480]> cast_2 = cast(dtype = image_to_fp16_dtype_0, x = image__scaled__)[name = tensor<string, []>("cast_2")];
            tensor<fp16, [1, 32, 240, 240]> input_1_cast = conv(bias = model_model_0_conv_bias_to_fp16, dilations = var_60, groups = var_19, pad = input_1_pad_0, pad_type = input_1_pad_type_0, strides = var_58, weight = model_model_0_conv_weight_to_fp16_palettized, x = cast_2)[name = tensor<string, []>("input_1_cast")];
            tensor<fp16, [1, 32, 240, 240]> input_3_cast = silu(x = input_1_cast)[name = tensor<string, []>("input_3_cast")];
            tensor<int32, [2]> var_67 = const()[name = tensor<string, []>("op_67"), val = tensor<int32, [2]>([2, 2])];
            tensor<int32, [2]> var_69 = const()[name = tensor<string, []>("op_69"), val = tensor<int32, [2]>([1, 1])];
            tensor<string, []> input_5_pad_type_0 = const()[name = tensor<string, []>("input_5_pad_type_0"), val = tensor<string, []>("custom")];
            tensor<int32, [4]> input_5_pad_0 = const()[name = tensor<string, []>("input_5_pad_0"), val = tensor<int32, [4]>([1, 1, 1, 1])];
            tensor<fp16, [64, 32, 3, 3]> model_model_1_conv_weight_to_fp16_palettized = constexpr_lut_to_dense()[indices = tensor<uint8, [18432]>(BLOBFILE(path = tensor<string, []>("@model_path/weights/weight.bin"), offset = tensor<uint64, []>(1728))), lut = tensor<fp16, [256]>(BLOBFILE(path = tensor<string, []>("@model_path/weights/weight.bin"), offset = tensor<uint64, []>(20224))), name = tensor<string, []>("model_model_1_conv_weight_to_fp16_palettized"), shape = tensor<uint32, [4]>([64, 32, 3, 3])];
            tensor<fp16, [64]> model_model_1_conv_bias_to_fp16 = const()[name = tensor<string, []>("model_model_1_conv_bias_to_fp16"), val = tensor<fp16, [64]>(BLOBFILE(path = tensor<string, []>("@model_path/weights/weight.bin"), offset = tensor<uint64, []>(20800)))];
            tensor<fp16, [1, 64, 120, 120]> input_5_cast = conv(bias = model_model_1_conv_bias_to_fp16, dilations = var_69, groups = var_19, pad = input_5_pad_0, pad_type = input_5_pad_type_0, strides = var_67, weight = model_model_1_conv_weight_to_fp16_palettized, x = input_3_cast)[name = tensor<string, []>("input_5_cast")];
            tensor<fp16, [1, 64, 120, 120]> input_7_cast = silu(x = input_5_cast)[name = tensor<string, []>("input_7_cast")];
            tensor<int32, [2]> var_80 = const()[name = tensor<string, []>("op_80"), val = tensor<int32, [2]>([1, 1])];
            tensor<int32, [2]> var_82 = const()[name = tensor<string, []>("op_82"), val = tensor<int32, [2]>([1, 1])];
            tensor<string, []> input_9_pad_type_0 = const()[name = tensor<string, []>("input_9_pad_type_0"), val = tensor<string, []>("custom")];
            tensor<int32, [4]> input_9_pad_0 = const()[name = tensor<string, []>("input_9_pad_0"), val = tensor<int32, [4]>([0, 0, 0, 0])];
            tensor<fp16, [64, 64, 1, 1]> model_model_2_cv1_conv_weight_to_fp16_palettized = constexpr_lut_to_dense()[indices = tensor<uint8, [4096]>(BLOBFILE(path = tensor<string, []>("@model_path/weights/weight.bin"), offset = tensor<uint64, []>(20992))), lut = tensor<fp16, [256]>(BLOBFILE(path = tensor<string, []>("@model_path/weights/weight.bin"), offset = tensor<uint64, []>(25152))), name = tensor<string, []>("model_model_2_cv1_conv_weight_to_fp16_palettized"), shape = tensor<uint32, [4]>([64, 64, 1, 1])];
            tensor<fp16, [64]> model_model_2_cv1_conv_bias_to_fp16 = const()[name = tensor<string, []>("model_model_2_cv1_conv_bias_to_fp16"), val = tensor<fp16, [64]>(BLOBFILE(path = tensor<string, []>("@model_path/weights/weight.bin"), offset = tensor<uint64, []>(25728)))];
            tensor<fp16, [1, 64, 120, 120]> input_9_cast = conv(bias = model_model_2_cv1_conv_bias_to_fp16, dilations = var_82, groups = var_19, pad = input_9_pad_0, pad_type = input_9_pad_type_0, strides = var_80, weight = model_model_2_cv1_conv_weight_to_fp16_palettized, x = input_7_cast)[name = tensor<string, []>("input_9_cast")];
            tensor<fp16, [1, 64, 120, 120]> var_85_cast = silu(x = input_9_cast)[name = tensor<string, []>("op_85_cast")];
            tensor<int32, [2]> var_86 = const()[name = tensor<string, []>("op_86"), val = tensor<int32, [2]>([32, 32])];
            tensor<int32, []> var_87_axis_0 = const()[name = tensor<string, []>("op_87_axis_0"), val = tensor<int32, []>(1)];
            tensor<fp16, [1, 32, 120, 120]> var_87_cast_0, tensor<fp16, [1, 32, 120, 120]> var_87_cast_1 = split(axis = var_87_axis_0, split_sizes = var_86, x = var_85_cast)[name = tensor<string, []>("op_87_cast")];
            tensor<int32, [2]> var_95 = const()[name = tensor<string, []>("op_95"), val = tensor<int32, [2]>([1, 1])];
            tensor<int32, [2]> var_97 = const()[name = tensor<string, []>("op_97"), val = tensor<int32, [2]>([1, 1])];
            tensor<string, []> input_13_pad_type_0 = const()[name = tensor<string, []>("input_13_pad_type_0"), val = tensor<string, []>("custom")];
            tensor<int32, [4]> input_13_pad_0 = const()[name = tensor<string, []>("input_13_pad_0"), val = tensor<int32, [4]>([1, 1, 1, 1])];
            tensor<fp16, [32, 32, 3, 3]> model_model_2_m_0_cv1_conv_weight_to_fp16_palettized = constexpr_lut_to_dense()[indices = tensor<uint8, [9216]>(BLOBFILE(path = tensor<string, []>("@model_path/weights/weight.bin"), offset = tensor<uint64, []>(25920))), lut = tensor<fp16, [256]>(BLOBFILE(path = tensor<string, []>("@model_path/weights/weight.bin"), offset = tensor<uint64, []>(35200))), name = tensor<string, []>("model_model_2_m_0_cv1_conv_weight_to_fp16_palettized"), shape = tensor<uint32, [4]>([32, 32, 3, 3])];
            tensor<fp16, [32]> model_model_2_m_0_cv1_conv_bias_to_fp16 = const()[name = tensor<string, []>("model_model_2_m_0_cv1_conv_bias_to_fp16"), val = tensor<fp16, [32]>(BLOBFILE(path = tensor<string, []>("@model_path/weights/weight.bin"), offset = tensor<uint64, []>(35776)))];
            tensor<fp16, [1, 32, 120, 120]> input_13_cast = conv(bias = model_model_2_m_0_cv1_conv_bias_to_fp16, dilations = var_97, groups = var_19, pad = input_13_pad_0, pad_type = input_13_pad_type_0, strides = var_95, weight = model_model_2_m_0_cv1_conv_weight_to_fp16_palettized, x = var_87_cast_1)[name = tensor<string, []>("input_13_cast")];
            tensor<fp16, [1, 32, 120, 120]> input_15_cast = silu(x = input_13_cast)[name = tensor<string, []>("input_15_cast")];
            tensor<int32, [2]> var_104 = const()[name = tensor<string, []>("op_104"), val = tensor<int32, [2]>([1, 1])];
            tensor<int32, [2]> var_106 = const()[name = tensor<string, []>("op_106"), val = tensor<int32, [2]>([1, 1])];
            tensor<string, []> input_17_pad_type_0 = const()[name = tensor<string, []>("input_17_pad_type_0"), val = tensor<string, []>("custom")];
            tensor<int32, [4]> input_17_pad_0 = const()[name = tensor<string, []>("input_17_pad_0"), val = tensor<int32, [4]>([1, 1, 1, 1])];
            tensor<fp16, [32, 32, 3, 3]> model_model_2_m_0_cv2_conv_weight_to_fp16_palettized = constexpr_lut_to_dense()[indices = tensor<uint8, [9216]>(BLOBFILE(path = tensor<string, []>("@model_path/weights/weight.bin"), offset = tensor<uint64, []>(35904))), lut = tensor<fp16, [256]>(BLOBFILE(path = tensor<string, []>("@model_path/weights/weight.bin"), offset = tensor<uint64, []>(45184))), name = tensor<string, []>("model_model_2_m_0_cv2_conv_weight_to_fp16_palettized"), shape = tensor<uint32, [4]>([32, 32, 3, 3])];
            tensor<fp16, [32]> model_model_2_m_0_cv2_conv_bias_to_fp16 = const()[name = tensor<string, []>("model_model_2_m_0_cv2_conv_bias_to_fp16"), val = tensor<fp16, [32]>(BLOBFILE(path = tensor<string, []>("@model_path/weights/weight.bin"), offset = tensor<uint64, []>(45760)))];
            tensor<fp16, [1, 32, 120, 120]> input_17_cast = conv(bias = model_model_2_m_0_cv2_conv_bias_to_fp16, dilations = var_106, groups = var_19, pad = input_17_pad_0, pad_type = input_17_pad_type_0, strides = var_104, weight = model_model_2_m_0_cv2_conv_weight_to_fp16_palettized, x = input_15_cast)[name = tensor<string, []>("input_17_cast")];
            tensor<fp16, [1, 32, 120, 120]> var_109_cast = silu(x = input_17_cast)[name = tensor<string, []>("op_109_cast")];
            tensor<fp16, [1, 32, 120, 120]> var_110_cast = add(x = var_87_cast_1, y = var_109_cast)[name = tensor<string, []>("op_110_cast")];
            tensor<bool, []> input_19_interleave_0 = const()[name = tensor<string, []>("input_19_interleave_0"), val = tensor<bool, []>(false)];
            tensor<fp16, [1, 96, 120, 120]> input_19_cast = concat(axis = var_19, interleave = input_19_interleave_0, values = (var_87_cast_0, var_87_cast_1, var_110_cast))[name = tensor<string, []>("input_19_cast")];
            tensor<int32, [2]> var_116 = const()[name = tensor<string, []>("op_116"), val = tensor<int32, [2]>([1, 1])];
            tensor<int32, [2]> var_118 = const()[name = tensor<string, []>("op_118"), val = tensor<int32, [2]>([1, 1])];
            tensor<string, []> input_21_pad_type_0 = const()[name = tensor<string, []>("input_21_pad_type_0"), val = tensor<string, []>("custom")];
            tensor<int32, [4]> input_21_pad_0 = const()[name = tensor<string, []>("input_21_pad_0"), val = tensor<int32, [4]>([0, 0, 0, 0])];
            tensor<fp16, [64, 96, 1, 1]> model_model_2_cv2_conv_weight_to_fp16_palettized = constexpr_lut_to_dense()[indices = tensor<uint8, [6144]>(BLOBFILE(path = tensor<string, []>("@model_path/weights/weight.bin"), offset = tensor<uint64, []>(45888))), lut = tensor<fp16, [256]>(BLOBFILE(path = tensor<string, []>("@model_path/weights/weight.bin"), offset = tensor<uint64, []>(52096))), name = tensor<string, []>("model_model_2_cv2_conv_weight_to_fp16_palettized"), shape = tensor<uint32, [4]>([64, 96, 1, 1])];
            tensor<fp16, [64]> model_model_2_cv2_conv_bias_to_fp16 = const()[name = tensor<string, []>("model_model_2_cv2_conv_bias_to_fp16"), val = tensor<fp16, [64]>(BLOBFILE(path = tensor<string, []>("@model_path/weights/weight.bin"), offset = tensor<uint64, []>(52672)))];
            tensor<fp16, [1, 64, 120, 120]> input_21_cast = conv(bias = model_model_2_cv2_conv_bias_to_fp16, dilations = var_118, groups = var_19, pad = input_21_pad_0, pad_type = input_21_pad_type_0, strides = var_116, weight = model_model_2_cv2_conv_weight_to_fp16_palettized, x = input_19_cast)[name = tensor<string, []>("input_21_cast")];
            tensor<fp16, [1, 64, 120, 120]> input_23_cast = silu(x = input_21_cast)[name = tensor<string, []>("input_23_cast")];
            tensor<int32, [2]> var_125 = const()[name = tensor<string, []>("op_125"), val = tensor<int32, [2]>([2, 2])];
            tensor<int32, [2]> var_127 = const()[name = tensor<string, []>("op_127"), val = tensor<int32, [2]>([1, 1])];
            tensor<string, []> input_25_pad_type_0 = const()[name = tensor<string, []>("input_25_pad_type_0"), val = tensor<string, []>("custom")];
            tensor<int32, [4]> input_25_pad_0 = const()[name = tensor<string, []>("input_25_pad_0"), val = tensor<int32, [4]>([1, 1, 1, 1])];
            tensor<fp16, [128, 64, 3, 3]> model_model_3_conv_weight_to_fp16_palettized = constexpr_lut_to_dense()[indices = tensor<uint8, [73728]>(BLOBFILE(path = tensor<string, []>("@model_path/weights/weight.bin"), offset = tensor<uint64, []>(52864))), lut = tensor<fp16, [256]>(BLOBFILE(path = tensor<string, []>("@model_path/weights/weight.bin"), offset = tensor<uint64, []>(126656))), name = tensor<string, []>("model_model_3_conv_weight_to_fp16_palettized"), shape = tensor<uint32, [4]>([128, 64, 3, 3])];
            tensor<fp16, [128]> model_model_3_conv_bias_to_fp16 = const()[name = tensor<string, []>("model_model_3_conv_bias_to_fp16"), val = tensor<fp16, [128]>(BLOBFILE(path = tensor<string, []>("@model_path/weights/weight.bin"), offset = tensor<uint64, []>(127232)))];
            tensor<fp16, [1, 128, 60, 60]> input_25_cast = conv(bias = model_model_3_conv_bias_to_fp16, dilations = var_127, groups = var_19, pad = input_25_pad_0, pad_type = input_25_pad_type_0, strides = var_125, weight = model_model_3_conv_weight_to_fp16_palettized, x = input_23_cast)[name = tensor<string, []>("input_25_cast")];
            tensor<fp16, [1, 128, 60, 60]> input_27_cast = silu(x = input_25_cast)[name = tensor<string, []>("input_27_cast")];
            tensor<int32, [2]> var_140 = const()[name = tensor<string, []>("op_140"), val = tensor<int32, [2]>([1, 1])];
            tensor<int32, [2]> var_142 = const()[name = tensor<string, []>("op_142"), val = tensor<int32, [2]>([1, 1])];
            tensor<string, []> input_29_pad_type_0 = const()[name = tensor<string, []>("input_29_pad_type_0"), val = tensor<string, []>("custom")];
            tensor<int32, [4]> input_29_pad_0 = const()[name = tensor<string, []>("input_29_pad_0"), val = tensor<int32, [4]>([0, 0, 0, 0])];
            tensor<fp16, [128, 128, 1, 1]> model_model_4_cv1_conv_weight_to_fp16_palettized = constexpr_lut_to_dense()[indices = tensor<uint8, [16384]>(BLOBFILE(path = tensor<string, []>("@model_path/weights/weight.bin"), offset = tensor<uint64, []>(127552))), lut = tensor<fp16, [256]>(BLOBFILE(path = tensor<string, []>("@model_path/weights/weight.bin"), offset = tensor<uint64, []>(144000))), name = tensor<string, []>("model_model_4_cv1_conv_weight_to_fp16_palettized"), shape = tensor<uint32, [4]>([128, 128, 1, 1])];
            tensor<fp16, [128]> model_model_4_cv1_conv_bias_to_fp16 = const()[name = tensor<string, []>("model_model_4_cv1_conv_bias_to_fp16"), val = tensor<fp16, [128]>(BLOBFILE(path = tensor<string, []>("@model_path/weights/weight.bin"), offset = tensor<uint64, []>(144576)))];
            tensor<fp16, [1, 128, 60, 60]> input_29_cast = conv(bias = model_model_4_cv1_conv_bias_to_fp16, dilations = var_142, groups = var_19, pad = input_29_pad_0, pad_type = input_29_pad_type_0, strides = var_140, weight = model_model_4_cv1_conv_weight_to_fp16_palettized, x = input_27_cast)[name = tensor<string, []>("input_29_cast")];
            tensor<fp16, [1, 128, 60, 60]> var_145_cast = silu(x = input_29_cast)[name = tensor<string, []>("op_145_cast")];
            tensor<int32, [2]> var_146 = const()[name = tensor<string, []>("op_146"), val = tensor<int32, [2]>([64, 64])];
            tensor<int32, []> var_147_axis_0 = const()[name = tensor<string, []>("op_147_axis_0"), val = tensor<int32, []>(1)];
            tensor<fp16, [1, 64, 60, 60]> var_147_cast_0, tensor<fp16, [1, 64, 60, 60]> var_147_cast_1 = split(axis = var_147_axis_0, split_sizes = var_146, x = var_145_cast)[name = tensor<string, []>("op_147_cast")];
            tensor<int32, [2]> var_155 = const()[name = tensor<string, []>("op_155"), val = tensor<int32, [2]>([1, 1])];
            tensor<int32, [2]> var_157 = const()[name = tensor<string, []>("op_157"), val = tensor<int32, [2]>([1, 1])];
            tensor<string, []> input_33_pad_type_0 = const()[name = tensor<string, []>("input_33_pad_type_0"), val = tensor<string, []>("custom")];
            tensor<int32, [4]> input_33_pad_0 = const()[name = tensor<string, []>("input_33_pad_0"), val = tensor<int32, [4]>([1, 1, 1, 1])];
            tensor<fp16, [64, 64, 3, 3]> model_model_4_m_0_cv1_conv_weight_to_fp16_palettized = constexpr_lut_to_dense()[indices = tensor<uint8, [36864]>(BLOBFILE(path = tensor<string, []>("@model_path/weights/weight.bin"), offset = tensor<uint64, []>(144896))), lut = tensor<fp16, [256]>(BLOBFILE(path = tensor<string, []>("@model_path/weights/weight.bin"), offset = tensor<uint64, []>(181824))), name = tensor<string, []>("model_model_4_m_0_cv1_conv_weight_to_fp16_palettized"), shape = tensor<uint32, [4]>([64, 64, 3, 3])];
            tensor<fp16, [64]> model_model_4_m_0_cv1_conv_bias_to_fp16 = const()[name = tensor<string, []>("model_model_4_m_0_cv1_conv_bias_to_fp16"), val = tensor<fp16, [64]>(BLOBFILE(path = tensor<string, []>("@model_path/weights/weight.bin"), offset = tensor<uint64, []>(182400)))];
            tensor<fp16, [1, 64, 60, 60]> input_33_cast = conv(bias = model_model_4_m_0_cv1_conv_bias_to_fp16, dilations = var_157, groups = var_19, pad = input_33_pad_0, pad_type = input_33_pad_type_0, strides = var_155, weight = model_model_4_m_0_cv1_conv_weight_to_fp16_palettized, x = var_147_cast_1)[name = tensor<string, []>("input_33_cast")];
            tensor<fp16, [1, 64, 60, 60]> input_35_cast = silu(x = input_33_cast)[name = tensor<string, []>("input_35_cast")];
            tensor<int32, [2]> var_164 = const()[name = tensor<string, []>("op_164"), val = tensor<int32, [2]>([1, 1])];
            tensor<int32, [2]> var_166 = const()[name = tensor<string, []>("op_166"), val = tensor<int32, [2]>([1, 1])];
            tensor<string, []> input_37_pad_type_0 = const()[name = tensor<string, []>("input_37_pad_type_0"), val = tensor<string, []>("custom")];
            tensor<int32, [4]> input_37_pad_0 = const()[name = tensor<string, []>("input_37_pad_0"), val = tensor<int32, [4]>([1, 1, 1, 1])];
            tensor<fp16, [64, 64, 3, 3]> model_model_4_m_0_cv2_conv_weight_to_fp16_palettized = constexpr_lut_to_dense()[indices = tensor<uint8, [36864]>(BLOBFILE(path = tensor<string, []>("@model_path/weights/weight.bin"), offset = tensor<uint64, []>(182592))), lut = tensor<fp16, [256]>(BLOBFILE(path = tensor<string, []>("@model_path/weights/weight.bin"), offset = tensor<uint64, []>(219520))), name = tensor<string, []>("model_model_4_m_0_cv2_conv_weight_to_fp16_palettized"), shape = tensor<uint32, [4]>([64, 64, 3, 3])];
            tensor<fp16, [64]> model_model_4_m_0_cv2_conv_bias_to_fp16 = const()[name = tensor<string, []>("model_model_4_m_0_cv2_conv_bias_to_fp16"), val = tensor<fp16, [64]>(BLOBFILE(path = tensor<string, []>("@model_path/weights/weight.bin"), offset = tensor<uint64, []>(220096)))];
            tensor<fp16, [1, 64, 60, 60]> input_37_cast = conv(bias = model_model_4_m_0_cv2_conv_bias_to_fp16, dilations = var_166, groups = var_19, pad = input_37_pad_0, pad_type = input_37_pad_type_0, strides = var_164, weight = model_model_4_m_0_cv2_conv_weight_to_fp16_palettized, x = input_35_cast)[name = tensor<string, []>("input_37_cast")];
            tensor<fp16, [1, 64, 60, 60]> var_169_cast = silu(x = input_37_cast)[name = tensor<string, []>("op_169_cast")];
            tensor<fp16, [1, 64, 60, 60]> input_39_cast = add(x = var_147_cast_1, y = var_169_cast)[name = tensor<string, []>("input_39_cast")];
            tensor<int32, [2]> var_176 = const()[name = tensor<string, []>("op_176"), val = tensor<int32, [2]>([1, 1])];
            tensor<int32, [2]> var_178 = const()[name = tensor<string, []>("op_178"), val = tensor<int32, [2]>([1, 1])];
            tensor<string, []> input_41_pad_type_0 = const()[name = tensor<string, []>("input_41_pad_type_0"), val = tensor<string, []>("custom")];
            tensor<int32, [4]> input_41_pad_0 = const()[name = tensor<string, []>("input_41_pad_0"), val = tensor<int32, [4]>([1, 1, 1, 1])];
            tensor<fp16, [64, 64, 3, 3]> model_model_4_m_1_cv1_conv_weight_to_fp16_palettized = constexpr_lut_to_dense()[indices = tensor<uint8, [36864]>(BLOBFILE(path = tensor<string, []>("@model_path/weights/weight.bin"), offset = tensor<uint64, []>(220288))), lut = tensor<fp16, [256]>(BLOBFILE(path = tensor<string, []>("@model_path/weights/weight.bin"), offset = tensor<uint64, []>(257216))), name = tensor<string, []>("model_model_4_m_1_cv1_conv_weight_to_fp16_palettized"), shape = tensor<uint32, [4]>([64, 64, 3, 3])];
            tensor<fp16, [64]> model_model_4_m_1_cv1_conv_bias_to_fp16 = const()[name = tensor<string, []>("model_model_4_m_1_cv1_conv_bias_to_fp16"), val = tensor<fp16, [64]>(BLOBFILE(path = tensor<string, []>("@model_path/weights/weight.bin"), offset = tensor<uint64, []>(257792)))];
            tensor<fp16, [1, 64, 60, 60]> input_41_cast = conv(bias = model_model_4_m_1_cv1_conv_bias_to_fp16, dilations = var_178, groups = var_19, pad = input_41_pad_0, pad_type = input_41_pad_type_0, strides = var_176, weight = model_model_4_m_1_cv1_conv_weight_to_fp16_palettized, x = input_39_cast)[name = tensor<string, []>("input_41_cast")];
            tensor<fp16, [1, 64, 60, 60]> input_43_cast = silu(x = input_41_cast)[name = tensor<string, []>("input_43_cast")];
            tensor<int32, [2]> var_185 = const()[name = tensor<string, []>("op_185"), val = tensor<int32, [2]>([1, 1])];
            tensor<int32, [2]> var_187 = const()[name = tensor<string, []>("op_187"), val = tensor<int32, [2]>([1, 1])];
            tensor<string, []> input_45_pad_type_0 = const()[name = tensor<string, []>("input_45_pad_type_0"), val = tensor<string, []>("custom")];
            tensor<int32, [4]> input_45_pad_0 = const()[name = tensor<string, []>("input_45_pad_0"), val = tensor<int32, [4]>([1, 1, 1, 1])];
            tensor<fp16, [64, 64, 3, 3]> model_model_4_m_1_cv2_conv_weight_to_fp16_palettized = constexpr_lut_to_dense()[indices = tensor<uint8, [36864]>(BLOBFILE(path = tensor<string, []>("@model_path/weights/weight.bin"), offset = tensor<uint64, []>(257984))), lut = tensor<fp16, [256]>(BLOBFILE(path = tensor<string, []>("@model_path/weights/weight.bin"), offset = tensor<uint64, []>(294912))), name = tensor<string, []>("model_model_4_m_1_cv2_conv_weight_to_fp16_palettized"), shape = tensor<uint32, [4]>([64, 64, 3, 3])];
            tensor<fp16, [64]> model_model_4_m_1_cv2_conv_bias_to_fp16 = const()[name = tensor<string, []>("model_model_4_m_1_cv2_conv_bias_to_fp16"), val = tensor<fp16, [64]>(BLOBFILE(path = tensor<string, []>("@model_path/weights/weight.bin"), offset = tensor<uint64, []>(295488)))];
            tensor<fp16, [1, 64, 60, 60]> input_45_cast = conv(bias = model_model_4_m_1_cv2_conv_bias_to_fp16, dilations = var_187, groups = var_19, pad = input_45_pad_0, pad_type = input_45_pad_type_0, strides = var_185, weight = model_model_4_m_1_cv2_conv_weight_to_fp16_palettized, x = input_43_cast)[name = tensor<string, []>("input_45_cast")];
            tensor<fp16, [1, 64, 60, 60]> var_190_cast = silu(x = input_45_cast)[name = tensor<string, []>("op_190_cast")];
            tensor<fp16, [1, 64, 60, 60]> var_191_cast = add(x = input_39_cast, y = var_190_cast)[name = tensor<string, []>("op_191_cast")];
            tensor<bool, []> input_47_interleave_0 = const()[name = tensor<string, []>("input_47_interleave_0"), val = tensor<bool, []>(false)];
            tensor<fp16, [1, 256, 60, 60]> input_47_cast = concat(axis = var_19, interleave = input_47_interleave_0, values = (var_147_cast_0, var_147_cast_1, input_39_cast, var_191_cast))[name = tensor<string, []>("input_47_cast")];
            tensor<int32, [2]> var_197 = const()[name = tensor<string, []>("op_197"), val = tensor<int32, [2]>([1, 1])];
            tensor<int32, [2]> var_199 = const()[name = tensor<string, []>("op_199"), val = tensor<int32, [2]>([1, 1])];
            tensor<string, []> input_49_pad_type_0 = const()[name = tensor<string, []>("input_49_pad_type_0"), val = tensor<string, []>("custom")];
            tensor<int32, [4]> input_49_pad_0 = const()[name = tensor<string, []>("input_49_pad_0"), val = tensor<int32, [4]>([0, 0, 0, 0])];
            tensor<fp16, [128, 256, 1, 1]> model_model_4_cv2_conv_weight_to_fp16_palettized = constexpr_lut_to_dense()[indices = tensor<uint8, [32768]>(BLOBFILE(path = tensor<string, []>("@model_path/weights/weight.bin"), offset = tensor<uint64, []>(295680))), lut = tensor<fp16, [256]>(BLOBFILE(path = tensor<string, []>("@model_path/weights/weight.bin"), offset = tensor<uint64, []>(328512))), name = tensor<string, []>("model_model_4_cv2_conv_weight_to_fp16_palettized"), shape = tensor<uint32, [4]>([128, 256, 1, 1])];
            tensor<fp16, [128]> model_model_4_cv2_conv_bias_to_fp16 = const()[name = tensor<string, []>("model_model_4_cv2_conv_bias_to_fp16"), val = tensor<fp16, [128]>(BLOBFILE(path = tensor<string, []>("@model_path/weights/weight.bin"), offset = tensor<uint64, []>(329088)))];
            tensor<fp16, [1, 128, 60, 60]> input_49_cast = conv(bias = model_model_4_cv2_conv_bias_to_fp16, dilations = var_199, groups = var_19, pad = input_49_pad_0, pad_type = input_49_pad_type_0, strides = var_197, weight = model_model_4_cv2_conv_weight_to_fp16_palettized, x = input_47_cast)[name = tensor<string, []>("input_49_cast")];
            tensor<fp16, [1, 128, 60, 60]> input_51_cast = silu(x = input_49_cast)[name = tensor<string, []>("input_51_cast")];
            tensor<int32, [2]> var_206 = const()[name = tensor<string, []>("op_206"), val = tensor<int32, [2]>([2, 2])];
            tensor<int32, [2]> var_208 = const()[name = tensor<string, []>("op_208"), val = tensor<int32, [2]>([1, 1])];
            tensor<string, []> input_53_pad_type_0 = const()[name = tensor<string, []>("input_53_pad_type_0"), val = tensor<string, []>("custom")];
            tensor<int32, [4]> input_53_pad_0 = const()[name = tensor<string, []>("input_53_pad_0"), val = tensor<int32, [4]>([1, 1, 1, 1])];
            tensor<fp16, [256, 128, 3, 3]> model_model_5_conv_weight_to_fp16_palettized = constexpr_lut_to_dense()[indices = tensor<uint8, [294912]>(BLOBFILE(path = tensor<string, []>("@model_path/weights/weight.bin"), offset = tensor<uint64, []>(329408))), lut = tensor<fp16, [256]>(BLOBFILE(path = tensor<string, []>("@model_path/weights/weight.bin"), offset = tensor<uint64, []>(624384))), name = tensor<string, []>("model_model_5_conv_weight_to_fp16_palettized"), shape = tensor<uint32, [4]>([256, 128, 3, 3])];
            tensor<fp16, [256]> model_model_5_conv_bias_to_fp16 = const()[name = tensor<string, []>("model_model_5_conv_bias_to_fp16"), val = tensor<fp16, [256]>(BLOBFILE(path = tensor<string, []>("@model_path/weights/weight.bin"), offset = tensor<uint64, []>(624960)))];
            tensor<fp16, [1, 256, 30, 30]> input_53_cast = conv(bias = model_model_5_conv_bias_to_fp16, dilations = var_208, groups = var_19, pad = input_53_pad_0, pad_type = input_53_pad_type_0, strides = var_206, weight = model_model_5_conv_weight_to_fp16_palettized, x = input_51_cast)[name = tensor<string, []>("input_53_cast")];
            tensor<fp16, [1, 256, 30, 30]> input_55_cast = silu(x = input_53_cast)[name = tensor<string, []>("input_55_cast")];
            tensor<int32, [2]> var_221 = const()[name = tensor<string, []>("op_221"), val = tensor<int32, [2]>([1, 1])];
            tensor<int32, [2]> var_223 = const()[name = tensor<string, []>("op_223"), val = tensor<int32, [2]>([1, 1])];
            tensor<string, []> input_57_pad_type_0 = const()[name = tensor<string, []>("input_57_pad_type_0"), val = tensor<string, []>("custom")];
            tensor<int32, [4]> input_57_pad_0 = const()[name = tensor<string, []>("input_57_pad_0"), val = tensor<int32, [4]>([0, 0, 0, 0])];
            tensor<fp16, [256, 256, 1, 1]> model_model_6_cv1_conv_weight_to_fp16_palettized = constexpr_lut_to_dense()[indices = tensor<uint8, [65536]>(BLOBFILE(path = tensor<string, []>("@model_path/weights/weight.bin"), offset = tensor<uint64, []>(625536))), lut = tensor<fp16, [256]>(BLOBFILE(path = tensor<string, []>("@model_path/weights/weight.bin"), offset = tensor<uint64, []>(691136))), name = tensor<string, []>("model_model_6_cv1_conv_weight_to_fp16_palettized"), shape = tensor<uint32, [4]>([256, 256, 1, 1])];
            tensor<fp16, [256]> model_model_6_cv1_conv_bias_to_fp16 = const()[name = tensor<string, []>("model_model_6_cv1_conv_bias_to_fp16"), val = tensor<fp16, [256]>(BLOBFILE(path = tensor<string, []>("@model_path/weights/weight.bin"), offset = tensor<uint64, []>(691712)))];
            tensor<fp16, [1, 256, 30, 30]> input_57_cast = conv(bias = model_model_6_cv1_conv_bias_to_fp16, dilations = var_223, groups = var_19, pad = input_57_pad_0, pad_type = input_57_pad_type_0, strides = var_221, weight = model_model_6_cv1_conv_weight_to_fp16_palettized, x = input_55_cast)[name = tensor<string, []>("input_57_cast")];
            tensor<fp16, [1, 256, 30, 30]> var_226_cast = silu(x = input_57_cast)[name = tensor<string, []>("op_226_cast")];
            tensor<int32, [2]> var_227 = const()[name = tensor<string, []>("op_227"), val = tensor<int32, [2]>([128, 128])];
            tensor<int32, []> var_228_axis_0 = const()[name = tensor<string, []>("op_228_axis_0"), val = tensor<int32, []>(1)];
            tensor<fp16, [1, 128, 30, 30]> var_228_cast_0, tensor<fp16, [1, 128, 30, 30]> var_228_cast_1 = split(axis = var_228_axis_0, split_sizes = var_227, x = var_226_cast)[name = tensor<string, []>("op_228_cast")];
            tensor<int32, [2]> var_236 = const()[name = tensor<string, []>("op_236"), val = tensor<int32, [2]>([1, 1])];
            tensor<int32, [2]> var_238 = const()[name = tensor<string, []>("op_238"), val = tensor<int32, [2]>([1, 1])];
            tensor<string, []> input_61_pad_type_0 = const()[name = tensor<string, []>("input_61_pad_type_0"), val = tensor<string, []>("custom")];
            tensor<int32, [4]> input_61_pad_0 = const()[name = tensor<string, []>("input_61_pad_0"), val = tensor<int32, [4]>([1, 1, 1, 1])];
            tensor<fp16, [128, 128, 3, 3]> model_model_6_m_0_cv1_conv_weight_to_fp16_palettized = constexpr_lut_to_dense()[indices = tensor<uint8, [147456]>(BLOBFILE(path = tensor<string, []>("@model_path/weights/weight.bin"), offset = tensor<uint64, []>(692288))), lut = tensor<fp16, [256]>(BLOBFILE(path = tensor<string, []>("@model_path/weights/weight.bin"), offset = tensor<uint64, []>(839808))), name = tensor<string, []>("model_model_6_m_0_cv1_conv_weight_to_fp16_palettized"), shape = tensor<uint32, [4]>([128, 128, 3, 3])];
            tensor<fp16, [128]> model_model_6_m_0_cv1_conv_bias_to_fp16 = const()[name = tensor<string, []>("model_model_6_m_0_cv1_conv_bias_to_fp16"), val = tensor<fp16, [128]>(BLOBFILE(path = tensor<string, []>("@model_path/weights/weight.bin"), offset = tensor<uint64, []>(840384)))];
            tensor<fp16, [1, 128, 30, 30]> input_61_cast = conv(bias = model_model_6_m_0_cv1_conv_bias_to_fp16, dilations = var_238, groups = var_19, pad = input_61_pad_0, pad_type = input_61_pad_type_0, strides = var_236, weight = model_model_6_m_0_cv1_conv_weight_to_fp16_palettized, x = var_228_cast_1)[name = tensor<string, []>("input_61_cast")];
            tensor<fp16, [1, 128, 30, 30]> input_63_cast = silu(x = input_61_cast)[name = tensor<string, []>("input_63_cast")];
            tensor<int32, [2]> var_245 = const()[name = tensor<string, []>("op_245"), val = tensor<int32, [2]>([1, 1])];
            tensor<int32, [2]> var_247 = const()[name = tensor<string, []>("op_247"), val = tensor<int32, [2]>([1, 1])];
            tensor<string, []> input_65_pad_type_0 = const()[name = tensor<string, []>("input_65_pad_type_0"), val = tensor<string, []>("custom")];
            tensor<int32, [4]> input_65_pad_0 = const()[name = tensor<string, []>("input_65_pad_0"), val = tensor<int32, [4]>([1, 1, 1, 1])];
            tensor<fp16, [128, 128, 3, 3]> model_model_6_m_0_cv2_conv_weight_to_fp16_palettized = constexpr_lut_to_dense()[indices = tensor<uint8, [147456]>(BLOBFILE(path = tensor<string, []>("@model_path/weights/weight.bin"), offset = tensor<uint64, []>(840704))), lut = tensor<fp16, [256]>(BLOBFILE(path = tensor<string, []>("@model_path/weights/weight.bin"), offset = tensor<uint64, []>(988224))), name = tensor<string, []>("model_model_6_m_0_cv2_conv_weight_to_fp16_palettized"), shape = tensor<uint32, [4]>([128, 128, 3, 3])];
            tensor<fp16, [128]> model_model_6_m_0_cv2_conv_bias_to_fp16 = const()[name = tensor<string, []>("model_model_6_m_0_cv2_conv_bias_to_fp16"), val = tensor<fp16, [128]>(BLOBFILE(path = tensor<string, []>("@model_path/weights/weight.bin"), offset = tensor<uint64, []>(988800)))];
            tensor<fp16, [1, 128, 30, 30]> input_65_cast = conv(bias = model_model_6_m_0_cv2_conv_bias_to_fp16, dilations = var_247, groups = var_19, pad = input_65_pad_0, pad_type = input_65_pad_type_0, strides = var_245, weight = model_model_6_m_0_cv2_conv_weight_to_fp16_palettized, x = input_63_cast)[name = tensor<string, []>("input_65_cast")];
            tensor<fp16, [1, 128, 30, 30]> var_250_cast = silu(x = input_65_cast)[name = tensor<string, []>("op_250_cast")];
            tensor<fp16, [1, 128, 30, 30]> input_67_cast = add(x = var_228_cast_1, y = var_250_cast)[name = tensor<string, []>("input_67_cast")];
            tensor<int32, [2]> var_257 = const()[name = tensor<string, []>("op_257"), val = tensor<int32, [2]>([1, 1])];
            tensor<int32, [2]> var_259 = const()[name = tensor<string, []>("op_259"), val = tensor<int32, [2]>([1, 1])];
            tensor<string, []> input_69_pad_type_0 = const()[name = tensor<string, []>("input_69_pad_type_0"), val = tensor<string, []>("custom")];
            tensor<int32, [4]> input_69_pad_0 = const()[name = tensor<string, []>("input_69_pad_0"), val = tensor<int32, [4]>([1, 1, 1, 1])];
            tensor<fp16, [128, 128, 3, 3]> model_model_6_m_1_cv1_conv_weight_to_fp16_palettized = constexpr_lut_to_dense()[indices = tensor<uint8, [147456]>(BLOBFILE(path = tensor<string, []>("@model_path/weights/weight.bin"), offset = tensor<uint64, []>(989120))), lut = tensor<fp16, [256]>(BLOBFILE(path = tensor<string, []>("@model_path/weights/weight.bin"), offset = tensor<uint64, []>(1136640))), name = tensor<string, []>("model_model_6_m_1_cv1_conv_weight_to_fp16_palettized"), shape = tensor<uint32, [4]>([128, 128, 3, 3])];
            tensor<fp16, [128]> model_model_6_m_1_cv1_conv_bias_to_fp16 = const()[name = tensor<string, []>("model_model_6_m_1_cv1_conv_bias_to_fp16"), val = tensor<fp16, [128]>(BLOBFILE(path = tensor<string, []>("@model_path/weights/weight.bin"), offset = tensor<uint64, []>(1137216)))];
            tensor<fp16, [1, 128, 30, 30]> input_69_cast = conv(bias = model_model_6_m_1_cv1_conv_bias_to_fp16, dilations = var_259, groups = var_19, pad = input_69_pad_0, pad_type = input_69_pad_type_0, strides = var_257, weight = model_model_6_m_1_cv1_conv_weight_to_fp16_palettized, x = input_67_cast)[name = tensor<string, []>("input_69_cast")];
            tensor<fp16, [1, 128, 30, 30]> input_71_cast = silu(x = input_69_cast)[name = tensor<string, []>("input_71_cast")];
            tensor<int32, [2]> var_266 = const()[name = tensor<string, []>("op_266"), val = tensor<int32, [2]>([1, 1])];
            tensor<int32, [2]> var_268 = const()[name = tensor<string, []>("op_268"), val = tensor<int32, [2]>([1, 1])];
            tensor<string, []> input_73_pad_type_0 = const()[name = tensor<string, []>("input_73_pad_type_0"), val = tensor<string, []>("custom")];
            tensor<int32, [4]> input_73_pad_0 = const()[name = tensor<string, []>("input_73_pad_0"), val = tensor<int32, [4]>([1, 1, 1, 1])];
            tensor<fp16, [128, 128, 3, 3]> model_model_6_m_1_cv2_conv_weight_to_fp16_palettized = constexpr_lut_to_dense()[indices = tensor<uint8, [147456]>(BLOBFILE(path = tensor<string, []>("@model_path/weights/weight.bin"), offset = tensor<uint64, []>(1137536))), lut = tensor<fp16, [256]>(BLOBFILE(path = tensor<string, []>("@model_path/weights/weight.bin"), offset = tensor<uint64, []>(1285056))), name = tensor<string, []>("model_model_6_m_1_cv2_conv_weight_to_fp16_palettized"), shape = tensor<uint32, [4]>([128, 128, 3, 3])];
            tensor<fp16, [128]> model_model_6_m_1_cv2_conv_bias_to_fp16 = const()[name = tensor<string, []>("model_model_6_m_1_cv2_conv_bias_to_fp16"), val = tensor<fp16, [128]>(BLOBFILE(path = tensor<string, []>("@model_path/weights/weight.bin"), offset = tensor<uint64, []>(1285632)))];
            tensor<fp16, [1, 128, 30, 30]> input_73_cast = conv(bias = model_model_6_m_1_cv2_conv_bias_to_fp16, dilations = var_268, groups = var_19, pad = input_73_pad_0, pad_type = input_73_pad_type_0, strides = var_266, weight = model_model_6_m_1_cv2_conv_weight_to_fp16_palettized, x = input_71_cast)[name = tensor<string, []>("input_73_cast")];
            tensor<fp16, [1, 128, 30, 30]> var_271_cast = silu(x = input_73_cast)[name = tensor<string, []>("op_271_cast")];
            tensor<fp16, [1, 128, 30, 30]> var_272_cast = add(x = input_67_cast, y = var_271_cast)[name = tensor<string, []>("op_272_cast")];
            tensor<bool, []> input_75_interleave_0 = const()[name = tensor<string, []>("input_75_interleave_0"), val = tensor<bool, []>(false)];
            tensor<fp16, [1, 512, 30, 30]> input_75_cast = concat(axis = var_19, interleave = input_75_interleave_0, values = (var_228_cast_0, var_228_cast_1, input_67_cast, var_272_cast))[name = tensor<string, []>("input_75_cast")];
            tensor<int32, [2]> var_278 = const()[name = tensor<string, []>("op_278"), val = tensor<int32, [2]>([1, 1])];
            tensor<int32, [2]> var_280 = const()[name = tensor<string, []>("op_280"), val = tensor<int32, [2]>([1, 1])];
            tensor<string, []> input_77_pad_type_0 = const()[name = tensor<string, []>("input_77_pad_type_0"), val = tensor<string, []>("custom")];
            tensor<int32, [4]> input_77_pad_0 = const()[name = tensor<string, []>("input_77_pad_0"), val = tensor<int32, [4]>([0, 0, 0, 0])];
            tensor<fp16, [256, 512, 1, 1]> model_model_6_cv2_conv_weight_to_fp16_palettized = constexpr_lut_to_dense()[indices = tensor<uint8, [131072]>(BLOBFILE(path = tensor<string, []>("@model_path/weights/weight.bin"), offset = tensor<uint64, []>(1285952))), lut = tensor<fp16, [256]>(BLOBFILE(path = tensor<string, []>("@model_path/weights/weight.bin"), offset = tensor<uint64, []>(1417088))), name = tensor<string, []>("model_model_6_cv2_conv_weight_to_fp16_palettized"), shape = tensor<uint32, [4]>([256, 512, 1, 1])];
            tensor<fp16, [256]> model_model_6_cv2_conv_bias_to_fp16 = const()[name = tensor<string, []>("model_model_6_cv2_conv_bias_to_fp16"), val = tensor<fp16, [256]>(BLOBFILE(path = tensor<string, []>("@model_path/weights/weight.bin"), offset = tensor<uint64, []>(1417664)))];
            tensor<fp16, [1, 256, 30, 30]> input_77_cast = conv(bias = model_model_6_cv2_conv_bias_to_fp16, dilations = var_280, groups = var_19, pad = input_77_pad_0, pad_type = input_77_pad_type_0, strides = var_278, weight = model_model_6_cv2_conv_weight_to_fp16_palettized, x = input_75_cast)[name = tensor<string, []>("input_77_cast")];
            tensor<fp16, [1, 256, 30, 30]> input_79_cast = silu(x = input_77_cast)[name = tensor<string, []>("input_79_cast")];
            tensor<int32, [2]> var_287 = const()[name = tensor<string, []>("op_287"), val = tensor<int32, [2]>([2, 2])];
            tensor<int32, [2]> var_289 = const()[name = tensor<string, []>("op_289"), val = tensor<int32, [2]>([1, 1])];
            tensor<string, []> input_81_pad_type_0 = const()[name = tensor<string, []>("input_81_pad_type_0"), val = tensor<string, []>("custom")];
            tensor<int32, [4]> input_81_pad_0 = const()[name = tensor<string, []>("input_81_pad_0"), val = tensor<int32, [4]>([1, 1, 1, 1])];
            tensor<fp16, [512, 256, 3, 3]> model_model_7_conv_weight_to_fp16_palettized = constexpr_lut_to_dense()[indices = tensor<uint8, [1179648]>(BLOBFILE(path = tensor<string, []>("@model_path/weights/weight.bin"), offset = tensor<uint64, []>(1418240))), lut = tensor<fp16, [256]>(BLOBFILE(path = tensor<string, []>("@model_path/weights/weight.bin"), offset = tensor<uint64, []>(2597952))), name = tensor<string, []>("model_model_7_conv_weight_to_fp16_palettized"), shape = tensor<uint32, [4]>([512, 256, 3, 3])];
            tensor<fp16, [512]> model_model_7_conv_bias_to_fp16 = const()[name = tensor<string, []>("model_model_7_conv_bias_to_fp16"), val = tensor<fp16, [512]>(BLOBFILE(path = tensor<string, []>("@model_path/weights/weight.bin"), offset = tensor<uint64, []>(2598528)))];
            tensor<fp16, [1, 512, 15, 15]> input_81_cast = conv(bias = model_model_7_conv_bias_to_fp16, dilations = var_289, groups = var_19, pad = input_81_pad_0, pad_type = input_81_pad_type_0, strides = var_287, weight = model_model_7_conv_weight_to_fp16_palettized, x = input_79_cast)[name = tensor<string, []>("input_81_cast")];
            tensor<fp16, [1, 512, 15, 15]> input_83_cast = silu(x = input_81_cast)[name = tensor<string, []>("input_83_cast")];
            tensor<int32, [2]> var_300 = const()[name = tensor<string, []>("op_300"), val = tensor<int32, [2]>([1, 1])];
            tensor<int32, [2]> var_302 = const()[name = tensor<string, []>("op_302"), val = tensor<int32, [2]>([1, 1])];
            tensor<string, []> input_85_pad_type_0 = const()[name = tensor<string, []>("input_85_pad_type_0"), val = tensor<string, []>("custom")];
            tensor<int32, [4]> input_85_pad_0 = const()[name = tensor<string, []>("input_85_pad_0"), val = tensor<int32, [4]>([0, 0, 0, 0])];
            tensor<fp16, [512, 512, 1, 1]> model_model_8_cv1_conv_weight_to_fp16_palettized = constexpr_lut_to_dense()[indices = tensor<uint8, [262144]>(BLOBFILE(path = tensor<string, []>("@model_path/weights/weight.bin"), offset = tensor<uint64, []>(2599616))), lut = tensor<fp16, [256]>(BLOBFILE(path = tensor<string, []>("@model_path/weights/weight.bin"), offset = tensor<uint64, []>(2861824))), name = tensor<string, []>("model_model_8_cv1_conv_weight_to_fp16_palettized"), shape = tensor<uint32, [4]>([512, 512, 1, 1])];
            tensor<fp16, [512]> model_model_8_cv1_conv_bias_to_fp16 = const()[name = tensor<string, []>("model_model_8_cv1_conv_bias_to_fp16"), val = tensor<fp16, [512]>(BLOBFILE(path = tensor<string, []>("@model_path/weights/weight.bin"), offset = tensor<uint64, []>(2862400)))];
            tensor<fp16, [1, 512, 15, 15]> input_85_cast = conv(bias = model_model_8_cv1_conv_bias_to_fp16, dilations = var_302, groups = var_19, pad = input_85_pad_0, pad_type = input_85_pad_type_0, strides = var_300, weight = model_model_8_cv1_conv_weight_to_fp16_palettized, x = input_83_cast)[name = tensor<string, []>("input_85_cast")];
            tensor<fp16, [1, 512, 15, 15]> var_305_cast = silu(x = input_85_cast)[name = tensor<string, []>("op_305_cast")];
            tensor<int32, [2]> var_306 = const()[name = tensor<string, []>("op_306"), val = tensor<int32, [2]>([256, 256])];
            tensor<int32, []> var_307_axis_0 = const()[name = tensor<string, []>("op_307_axis_0"), val = tensor<int32, []>(1)];
            tensor<fp16, [1, 256, 15, 15]> var_307_cast_0, tensor<fp16, [1, 256, 15, 15]> var_307_cast_1 = split(axis = var_307_axis_0, split_sizes = var_306, x = var_305_cast)[name = tensor<string, []>("op_307_cast")];
            tensor<int32, [2]> var_315 = const()[name = tensor<string, []>("op_315"), val = tensor<int32, [2]>([1, 1])];
            tensor<int32, [2]> var_317 = const()[name = tensor<string, []>("op_317"), val = tensor<int32, [2]>([1, 1])];
            tensor<string, []> input_89_pad_type_0 = const()[name = tensor<string, []>("input_89_pad_type_0"), val = tensor<string, []>("custom")];
            tensor<int32, [4]> input_89_pad_0 = const()[name = tensor<string, []>("input_89_pad_0"), val = tensor<int32, [4]>([1, 1, 1, 1])];
            tensor<fp16, [256, 256, 3, 3]> model_model_8_m_0_cv1_conv_weight_to_fp16_palettized = constexpr_lut_to_dense()[indices = tensor<uint8, [589824]>(BLOBFILE(path = tensor<string, []>("@model_path/weights/weight.bin"), offset = tensor<uint64, []>(2863488))), lut = tensor<fp16, [256]>(BLOBFILE(path = tensor<string, []>("@model_path/weights/weight.bin"), offset = tensor<uint64, []>(3453376))), name = tensor<string, []>("model_model_8_m_0_cv1_conv_weight_to_fp16_palettized"), shape = tensor<uint32, [4]>([256, 256, 3, 3])];
            tensor<fp16, [256]> model_model_8_m_0_cv1_conv_bias_to_fp16 = const()[name = tensor<string, []>("model_model_8_m_0_cv1_conv_bias_to_fp16"), val = tensor<fp16, [256]>(BLOBFILE(path = tensor<string, []>("@model_path/weights/weight.bin"), offset = tensor<uint64, []>(3453952)))];
            tensor<fp16, [1, 256, 15, 15]> input_89_cast = conv(bias = model_model_8_m_0_cv1_conv_bias_to_fp16, dilations = var_317, groups = var_19, pad = input_89_pad_0, pad_type = input_89_pad_type_0, strides = var_315, weight = model_model_8_m_0_cv1_conv_weight_to_fp16_palettized, x = var_307_cast_1)[name = tensor<string, []>("input_89_cast")];
            tensor<fp16, [1, 256, 15, 15]> input_91_cast = silu(x = input_89_cast)[name = tensor<string, []>("input_91_cast")];
            tensor<int32, [2]> var_324 = const()[name = tensor<string, []>("op_324"), val = tensor<int32, [2]>([1, 1])];
            tensor<int32, [2]> var_326 = const()[name = tensor<string, []>("op_326"), val = tensor<int32, [2]>([1, 1])];
            tensor<string, []> input_93_pad_type_0 = const()[name = tensor<string, []>("input_93_pad_type_0"), val = tensor<string, []>("custom")];
            tensor<int32, [4]> input_93_pad_0 = const()[name = tensor<string, []>("input_93_pad_0"), val = tensor<int32, [4]>([1, 1, 1, 1])];
            tensor<fp16, [256, 256, 3, 3]> model_model_8_m_0_cv2_conv_weight_to_fp16_palettized = constexpr_lut_to_dense()[indices = tensor<uint8, [589824]>(BLOBFILE(path = tensor<string, []>("@model_path/weights/weight.bin"), offset = tensor<uint64, []>(3454528))), lut = tensor<fp16, [256]>(BLOBFILE(path = tensor<string, []>("@model_path/weights/weight.bin"), offset = tensor<uint64, []>(4044416))), name = tensor<string, []>("model_model_8_m_0_cv2_conv_weight_to_fp16_palettized"), shape = tensor<uint32, [4]>([256, 256, 3, 3])];
            tensor<fp16, [256]> model_model_8_m_0_cv2_conv_bias_to_fp16 = const()[name = tensor<string, []>("model_model_8_m_0_cv2_conv_bias_to_fp16"), val = tensor<fp16, [256]>(BLOBFILE(path = tensor<string, []>("@model_path/weights/weight.bin"), offset = tensor<uint64, []>(4044992)))];
            tensor<fp16, [1, 256, 15, 15]> input_93_cast = conv(bias = model_model_8_m_0_cv2_conv_bias_to_fp16, dilations = var_326, groups = var_19, pad = input_93_pad_0, pad_type = input_93_pad_type_0, strides = var_324, weight = model_model_8_m_0_cv2_conv_weight_to_fp16_palettized, x = input_91_cast)[name = tensor<string, []>("input_93_cast")];
            tensor<fp16, [1, 256, 15, 15]> var_329_cast = silu(x = input_93_cast)[name = tensor<string, []>("op_329_cast")];
            tensor<fp16, [1, 256, 15, 15]> var_330_cast = add(x = var_307_cast_1, y = var_329_cast)[name = tensor<string, []>("op_330_cast")];
            tensor<bool, []> input_95_interleave_0 = const()[name = tensor<string, []>("input_95_interleave_0"), val = tensor<bool, []>(false)];
            tensor<fp16, [1, 768, 15, 15]> input_95_cast = concat(axis = var_19, interleave = input_95_interleave_0, values = (var_307_cast_0, var_307_cast_1, var_330_cast))[name = tensor<string, []>("input_95_cast")];
            tensor<int32, [2]> var_336 = const()[name = tensor<string, []>("op_336"), val = tensor<int32, [2]>([1, 1])];
            tensor<int32, [2]> var_338 = const()[name = tensor<string, []>("op_338"), val = tensor<int32, [2]>([1, 1])];
            tensor<string, []> input_97_pad_type_0 = const()[name = tensor<string, []>("input_97_pad_type_0"), val = tensor<string, []>("custom")];
            tensor<int32, [4]> input_97_pad_0 = const()[name = tensor<string, []>("input_97_pad_0"), val = tensor<int32, [4]>([0, 0, 0, 0])];
            tensor<fp16, [512, 768, 1, 1]> model_model_8_cv2_conv_weight_to_fp16_palettized = constexpr_lut_to_dense()[indices = tensor<uint8, [393216]>(BLOBFILE(path = tensor<string, []>("@model_path/weights/weight.bin"), offset = tensor<uint64, []>(4045568))), lut = tensor<fp16, [256]>(BLOBFILE(path = tensor<string, []>("@model_path/weights/weight.bin"), offset = tensor<uint64, []>(4438848))), name = tensor<string, []>("model_model_8_cv2_conv_weight_to_fp16_palettized"), shape = tensor<uint32, [4]>([512, 768, 1, 1])];
            tensor<fp16, [512]> model_model_8_cv2_conv_bias_to_fp16 = const()[name = tensor<string, []>("model_model_8_cv2_conv_bias_to_fp16"), val = tensor<fp16, [512]>(BLOBFILE(path = tensor<string, []>("@model_path/weights/weight.bin"), offset = tensor<uint64, []>(4439424)))];
            tensor<fp16, [1, 512, 15, 15]> input_97_cast = conv(bias = model_model_8_cv2_conv_bias_to_fp16, dilations = var_338, groups = var_19, pad = input_97_pad_0, pad_type = input_97_pad_type_0, strides = var_336, weight = model_model_8_cv2_conv_weight_to_fp16_palettized, x = input_95_cast)[name = tensor<string, []>("input_97_cast")];
            tensor<fp16, [1, 512, 15, 15]> input_99_cast = silu(x = input_97_cast)[name = tensor<string, []>("input_99_cast")];
            tensor<int32, [2]> var_347 = const()[name = tensor<string, []>("op_347"), val = tensor<int32, [2]>([1, 1])];
            tensor<int32, [2]> var_349 = const()[name = tensor<string, []>("op_349"), val = tensor<int32, [2]>([1, 1])];
            tensor<string, []> input_101_pad_type_0 = const()[name = tensor<string, []>("input_101_pad_type_0"), val = tensor<string, []>("custom")];
            tensor<int32, [4]> input_101_pad_0 = const()[name = tensor<string, []>("input_101_pad_0"), val = tensor<int32, [4]>([0, 0, 0, 0])];
            tensor<fp16, [256, 512, 1, 1]> model_model_9_cv1_conv_weight_to_fp16_palettized = constexpr_lut_to_dense()[indices = tensor<uint8, [131072]>(BLOBFILE(path = tensor<string, []>("@model_path/weights/weight.bin"), offset = tensor<uint64, []>(4440512))), lut = tensor<fp16, [256]>(BLOBFILE(path = tensor<string, []>("@model_path/weights/weight.bin"), offset = tensor<uint64, []>(4571648))), name = tensor<string, []>("model_model_9_cv1_conv_weight_to_fp16_palettized"), shape = tensor<uint32, [4]>([256, 512, 1, 1])];
            tensor<fp16, [256]> model_model_9_cv1_conv_bias_to_fp16 = const()[name = tensor<string, []>("model_model_9_cv1_conv_bias_to_fp16"), val = tensor<fp16, [256]>(BLOBFILE(path = tensor<string, []>("@model_path/weights/weight.bin"), offset = tensor<uint64, []>(4572224)))];
            tensor<fp16, [1, 256, 15, 15]> input_101_cast = conv(bias = model_model_9_cv1_conv_bias_to_fp16, dilations = var_349, groups = var_19, pad = input_101_pad_0, pad_type = input_101_pad_type_0, strides = var_347, weight = model_model_9_cv1_conv_weight_to_fp16_palettized, x = input_99_cast)[name = tensor<string, []>("input_101_cast")];
            tensor<fp16, [1, 256, 15, 15]> input_103_cast = silu(x = input_101_cast)[name = tensor<string, []>("input_103_cast")];
            tensor<int32, [2]> var_353 = const()[name = tensor<string, []>("op_353"), val = tensor<int32, [2]>([5, 5])];
            tensor<int32, [2]> var_354 = const()[name = tensor<string, []>("op_354"), val = tensor<int32, [2]>([1, 1])];
            tensor<string, []> input_105_pad_type_0 = const()[name = tensor<string, []>("input_105_pad_type_0"), val = tensor<string, []>("custom")];
            tensor<int32, [4]> input_105_pad_0 = const()[name = tensor<string, []>("input_105_pad_0"), val = tensor<int32, [4]>([2, 2, 2, 2])];
            tensor<bool, []> input_105_ceil_mode_0 = const()[name = tensor<string, []>("input_105_ceil_mode_0"), val = tensor<bool, []>(false)];
            tensor<fp16, [1, 256, 15, 15]> input_105_cast = max_pool(ceil_mode = input_105_ceil_mode_0, kernel_sizes = var_353, pad = input_105_pad_0, pad_type = input_105_pad_type_0, strides = var_354, x = input_103_cast)[name = tensor<string, []>("input_105_cast")];
            tensor<int32, [2]> var_358 = const()[name = tensor<string, []>("op_358"), val = tensor<int32, [2]>([5, 5])];
            tensor<int32, [2]> var_359 = const()[name = tensor<string, []>("op_359"), val = tensor<int32, [2]>([1, 1])];
            tensor<string, []> input_107_pad_type_0 = const()[name = tensor<string, []>("input_107_pad_type_0"), val = tensor<string, []>("custom")];
            tensor<int32, [4]> input_107_pad_0 = const()[name = tensor<string, []>("input_107_pad_0"), val = tensor<int32, [4]>([2, 2, 2, 2])];
            tensor<bool, []> input_107_ceil_mode_0 = const()[name = tensor<string, []>("input_107_ceil_mode_0"), val = tensor<bool, []>(false)];
            tensor<fp16, [1, 256, 15, 15]> input_107_cast = max_pool(ceil_mode = input_107_ceil_mode_0, kernel_sizes = var_358, pad = input_107_pad_0, pad_type = input_107_pad_type_0, strides = var_359, x = input_105_cast)[name = tensor<string, []>("input_107_cast")];
            tensor<int32, [2]> var_363 = const()[name = tensor<string, []>("op_363"), val = tensor<int32, [2]>([5, 5])];
            tensor<int32, [2]> var_364 = const()[name = tensor<string, []>("op_364"), val = tensor<int32, [2]>([1, 1])];
            tensor<string, []> var_367_pad_type_0 = const()[name = tensor<string, []>("op_367_pad_type_0"), val = tensor<string, []>("custom")];
            tensor<int32, [4]> var_367_pad_0 = const()[name = tensor<string, []>("op_367_pad_0"), val = tensor<int32, [4]>([2, 2, 2, 2])];
            tensor<bool, []> var_367_ceil_mode_0 = const()[name = tensor<string, []>("op_367_ceil_mode_0"), val = tensor<bool, []>(false)];
            tensor<fp16, [1, 256, 15, 15]> var_367_cast = max_pool(ceil_mode = var_367_ceil_mode_0, kernel_sizes = var_363, pad = var_367_pad_0, pad_type = var_367_pad_type_0, strides = var_364, x = input_107_cast)[name = tensor<string, []>("op_367_cast")];
            tensor<bool, []> input_109_interleave_0 = const()[name = tensor<string, []>("input_109_interleave_0"), val = tensor<bool, []>(false)];
            tensor<fp16, [1, 1024, 15, 15]> input_109_cast = concat(axis = var_19, interleave = input_109_interleave_0, values = (input_103_cast, input_105_cast, input_107_cast, var_367_cast))[name = tensor<string, []>("input_109_cast")];
            tensor<int32, [2]> var_373 = const()[name = tensor<string, []>("op_373"), val = tensor<int32, [2]>([1, 1])];
            tensor<int32, [2]> var_375 = const()[name = tensor<string, []>("op_375"), val = tensor<int32, [2]>([1, 1])];
            tensor<string, []> input_111_pad_type_0 = const()[name = tensor<string, []>("input_111_pad_type_0"), val = tensor<string, []>("custom")];
            tensor<int32, [4]> input_111_pad_0 = const()[name = tensor<string, []>("input_111_pad_0"), val = tensor<int32, [4]>([0, 0, 0, 0])];
            tensor<fp16, [512, 1024, 1, 1]> model_model_9_cv2_conv_weight_to_fp16_palettized = constexpr_lut_to_dense()[indices = tensor<uint8, [524288]>(BLOBFILE(path = tensor<string, []>("@model_path/weights/weight.bin"), offset = tensor<uint64, []>(4572800))), lut = tensor<fp16, [256]>(BLOBFILE(path = tensor<string, []>("@model_path/weights/weight.bin"), offset = tensor<uint64, []>(5097152))), name = tensor<string, []>("model_model_9_cv2_conv_weight_to_fp16_palettized"), shape = tensor<uint32, [4]>([512, 1024, 1, 1])];
            tensor<fp16, [512]> model_model_9_cv2_conv_bias_to_fp16 = const()[name = tensor<string, []>("model_model_9_cv2_conv_bias_to_fp16"), val = tensor<fp16, [512]>(BLOBFILE(path = tensor<string, []>("@model_path/weights/weight.bin"), offset = tensor<uint64, []>(5097728)))];
            tensor<fp16, [1, 512, 15, 15]> input_111_cast = conv(bias = model_model_9_cv2_conv_bias_to_fp16, dilations = var_375, groups = var_19, pad = input_111_pad_0, pad_type = input_111_pad_type_0, strides = var_373, weight = model_model_9_cv2_conv_weight_to_fp16_palettized, x = input_109_cast)[name = tensor<string, []>("input_111_cast")];
            tensor<fp16, [1, 512, 15, 15]> input_113_cast = silu(x = input_111_cast)[name = tensor<string, []>("input_113_cast")];
            tensor<fp32, []> var_380_scale_factor_height_0 = const()[name = tensor<string, []>("op_380_scale_factor_height_0"), val = tensor<fp32, []>(0x1p+1)];
            tensor<fp32, []> var_380_scale_factor_width_0 = const()[name = tensor<string, []>("op_380_scale_factor_width_0"), val = tensor<fp32, []>(0x1p+1)];
            tensor<fp16, [1, 512, 30, 30]> var_380_cast = upsample_nearest_neighbor(scale_factor_height = var_380_scale_factor_height_0, scale_factor_width = var_380_scale_factor_width_0, x = input_113_cast)[name = tensor<string, []>("op_380_cast")];
            tensor<bool, []> input_115_interleave_0 = const()[name = tensor<string, []>("input_115_interleave_0"), val = tensor<bool, []>(false)];
            tensor<fp16, [1, 768, 30, 30]> input_115_cast = concat(axis = var_19, interleave = input_115_interleave_0, values = (var_380_cast, input_79_cast))[name = tensor<string, []>("input_115_cast")];
            tensor<int32, [2]> var_390 = const()[name = tensor<string, []>("op_390"), val = tensor<int32, [2]>([1, 1])];
            tensor<int32, [2]> var_392 = const()[name = tensor<string, []>("op_392"), val = tensor<int32, [2]>([1, 1])];
            tensor<string, []> input_117_pad_type_0 = const()[name = tensor<string, []>("input_117_pad_type_0"), val = tensor<string, []>("custom")];
            tensor<int32, [4]> input_117_pad_0 = const()[name = tensor<string, []>("input_117_pad_0"), val = tensor<int32, [4]>([0, 0, 0, 0])];
            tensor<fp16, [256, 768, 1, 1]> model_model_12_cv1_conv_weight_to_fp16_palettized = constexpr_lut_to_dense()[indices = tensor<uint8, [196608]>(BLOBFILE(path = tensor<string, []>("@model_path/weights/weight.bin"), offset = tensor<uint64, []>(5098816))), lut = tensor<fp16, [256]>(BLOBFILE(path = tensor<string, []>("@model_path/weights/weight.bin"), offset = tensor<uint64, []>(5295488))), name = tensor<string, []>("model_model_12_cv1_conv_weight_to_fp16_palettized"), shape = tensor<uint32, [4]>([256, 768, 1, 1])];
            tensor<fp16, [256]> model_model_12_cv1_conv_bias_to_fp16 = const()[name = tensor<string, []>("model_model_12_cv1_conv_bias_to_fp16"), val = tensor<fp16, [256]>(BLOBFILE(path = tensor<string, []>("@model_path/weights/weight.bin"), offset = tensor<uint64, []>(5296064)))];
            tensor<fp16, [1, 256, 30, 30]> input_117_cast = conv(bias = model_model_12_cv1_conv_bias_to_fp16, dilations = var_392, groups = var_19, pad = input_117_pad_0, pad_type = input_117_pad_type_0, strides = var_390, weight = model_model_12_cv1_conv_weight_to_fp16_palettized, x = input_115_cast)[name = tensor<string, []>("input_117_cast")];
            tensor<fp16, [1, 256, 30, 30]> var_395_cast = silu(x = input_117_cast)[name = tensor<string, []>("op_395_cast")];
            tensor<int32, [2]> var_396 = const()[name = tensor<string, []>("op_396"), val = tensor<int32, [2]>([128, 128])];
            tensor<int32, []> var_397_axis_0 = const()[name = tensor<string, []>("op_397_axis_0"), val = tensor<int32, []>(1)];
            tensor<fp16, [1, 128, 30, 30]> var_397_cast_0, tensor<fp16, [1, 128, 30, 30]> var_397_cast_1 = split(axis = var_397_axis_0, split_sizes = var_396, x = var_395_cast)[name = tensor<string, []>("op_397_cast")];
            tensor<int32, [2]> var_405 = const()[name = tensor<string, []>("op_405"), val = tensor<int32, [2]>([1, 1])];
            tensor<int32, [2]> var_407 = const()[name = tensor<string, []>("op_407"), val = tensor<int32, [2]>([1, 1])];
            tensor<string, []> input_121_pad_type_0 = const()[name = tensor<string, []>("input_121_pad_type_0"), val = tensor<string, []>("custom")];
            tensor<int32, [4]> input_121_pad_0 = const()[name = tensor<string, []>("input_121_pad_0"), val = tensor<int32, [4]>([1, 1, 1, 1])];
            tensor<fp16, [128, 128, 3, 3]> model_model_12_m_0_cv1_conv_weight_to_fp16_palettized = constexpr_lut_to_dense()[indices = tensor<uint8, [147456]>(BLOBFILE(path = tensor<string, []>("@model_path/weights/weight.bin"), offset = tensor<uint64, []>(5296640))), lut = tensor<fp16, [256]>(BLOBFILE(path = tensor<string, []>("@model_path/weights/weight.bin"), offset = tensor<uint64, []>(5444160))), name = tensor<string, []>("model_model_12_m_0_cv1_conv_weight_to_fp16_palettized"), shape = tensor<uint32, [4]>([128, 128, 3, 3])];
            tensor<fp16, [128]> model_model_12_m_0_cv1_conv_bias_to_fp16 = const()[name = tensor<string, []>("model_model_12_m_0_cv1_conv_bias_to_fp16"), val = tensor<fp16, [128]>(BLOBFILE(path = tensor<string, []>("@model_path/weights/weight.bin"), offset = tensor<uint64, []>(5444736)))];
            tensor<fp16, [1, 128, 30, 30]> input_121_cast = conv(bias = model_model_12_m_0_cv1_conv_bias_to_fp16, dilations = var_407, groups = var_19, pad = input_121_pad_0, pad_type = input_121_pad_type_0, strides = var_405, weight = model_model_12_m_0_cv1_conv_weight_to_fp16_palettized, x = var_397_cast_1)[name = tensor<string, []>("input_121_cast")];
            tensor<fp16, [1, 128, 30, 30]> input_123_cast = silu(x = input_121_cast)[name = tensor<string, []>("input_123_cast")];
            tensor<int32, [2]> var_414 = const()[name = tensor<string, []>("op_414"), val = tensor<int32, [2]>([1, 1])];
            tensor<int32, [2]> var_416 = const()[name = tensor<string, []>("op_416"), val = tensor<int32, [2]>([1, 1])];
            tensor<string, []> input_125_pad_type_0 = const()[name = tensor<string, []>("input_125_pad_type_0"), val = tensor<string, []>("custom")];
            tensor<int32, [4]> input_125_pad_0 = const()[name = tensor<string, []>("input_125_pad_0"), val = tensor<int32, [4]>([1, 1, 1, 1])];
            tensor<fp16, [128, 128, 3, 3]> model_model_12_m_0_cv2_conv_weight_to_fp16_palettized = constexpr_lut_to_dense()[indices = tensor<uint8, [147456]>(BLOBFILE(path = tensor<string, []>("@model_path/weights/weight.bin"), offset = tensor<uint64, []>(5445056))), lut = tensor<fp16, [256]>(BLOBFILE(path = tensor<string, []>("@model_path/weights/weight.bin"), offset = tensor<uint64, []>(5592576))), name = tensor<string, []>("model_model_12_m_0_cv2_conv_weight_to_fp16_palettized"), shape = tensor<uint32, [4]>([128, 128, 3, 3])];
            tensor<fp16, [128]> model_model_12_m_0_cv2_conv_bias_to_fp16 = const()[name = tensor<string, []>("model_model_12_m_0_cv2_conv_bias_to_fp16"), val = tensor<fp16, [128]>(BLOBFILE(path = tensor<string, []>("@model_path/weights/weight.bin"), offset = tensor<uint64, []>(5593152)))];
            tensor<fp16, [1, 128, 30, 30]> input_125_cast = conv(bias = model_model_12_m_0_cv2_conv_bias_to_fp16, dilations = var_416, groups = var_19, pad = input_125_pad_0, pad_type = input_125_pad_type_0, strides = var_414, weight = model_model_12_m_0_cv2_conv_weight_to_fp16_palettized, x = input_123_cast)[name = tensor<string, []>("input_125_cast")];
            tensor<fp16, [1, 128, 30, 30]> var_419_cast = silu(x = input_125_cast)[name = tensor<string, []>("op_419_cast")];
            tensor<bool, []> input_127_interleave_0 = const()[name = tensor<string, []>("input_127_interleave_0"), val = tensor<bool, []>(false)];
            tensor<fp16, [1, 384, 30, 30]> input_127_cast = concat(axis = var_19, interleave = input_127_interleave_0, values = (var_397_cast_0, var_397_cast_1, var_419_cast))[name = tensor<string, []>("input_127_cast")];
            tensor<int32, [2]> var_425 = const()[name = tensor<string, []>("op_425"), val = tensor<int32, [2]>([1, 1])];
            tensor<int32, [2]> var_427 = const()[name = tensor<string, []>("op_427"), val = tensor<int32, [2]>([1, 1])];
            tensor<string, []> input_129_pad_type_0 = const()[name = tensor<string, []>("input_129_pad_type_0"), val = tensor<string, []>("custom")];
            tensor<int32, [4]> input_129_pad_0 = const()[name = tensor<string, []>("input_129_pad_0"), val = tensor<int32, [4]>([0, 0, 0, 0])];
            tensor<fp16, [256, 384, 1, 1]> model_model_12_cv2_conv_weight_to_fp16_palettized = constexpr_lut_to_dense()[indices = tensor<uint8, [98304]>(BLOBFILE(path = tensor<string, []>("@model_path/weights/weight.bin"), offset = tensor<uint64, []>(5593472))), lut = tensor<fp16, [256]>(BLOBFILE(path = tensor<string, []>("@model_path/weights/weight.bin"), offset = tensor<uint64, []>(5691840))), name = tensor<string, []>("model_model_12_cv2_conv_weight_to_fp16_palettized"), shape = tensor<uint32, [4]>([256, 384, 1, 1])];
            tensor<fp16, [256]> model_model_12_cv2_conv_bias_to_fp16 = const()[name = tensor<string, []>("model_model_12_cv2_conv_bias_to_fp16"), val = tensor<fp16, [256]>(BLOBFILE(path = tensor<string, []>("@model_path/weights/weight.bin"), offset = tensor<uint64, []>(5692416)))];
            tensor<fp16, [1, 256, 30, 30]> input_129_cast = conv(bias = model_model_12_cv2_conv_bias_to_fp16, dilations = var_427, groups = var_19, pad = input_129_pad_0, pad_type = input_129_pad_type_0, strides = var_425, weight = model_model_12_cv2_conv_weight_to_fp16_palettized, x = input_127_cast)[name = tensor<string, []>("input_129_cast")];
            tensor<fp16, [1, 256, 30, 30]> input_131_cast = silu(x = input_129_cast)[name = tensor<string, []>("input_131_cast")];
            tensor<fp32, []> var_432_scale_factor_height_0 = const()[name = tensor<string, []>("op_432_scale_factor_height_0"), val = tensor<fp32, []>(0x1p+1)];
            tensor<fp32, []> var_432_scale_factor_width_0 = const()[name = tensor<string, []>("op_432_scale_factor_width_0"), val = tensor<fp32, []>(0x1p+1)];
            tensor<fp16, [1, 256, 60, 60]> var_432_cast = upsample_nearest_neighbor(scale_factor_height = var_432_scale_factor_height_0, scale_factor_width = var_432_scale_factor_width_0, x = input_131_cast)[name = tensor<string, []>("op_432_cast")];
            tensor<bool, []> input_133_interleave_0 = const()[name = tensor<string, []>("input_133_interleave_0"), val = tensor<bool, []>(false)];
            tensor<fp16, [1, 384, 60, 60]> input_133_cast = concat(axis = var_19, interleave = input_133_interleave_0, values = (var_432_cast, input_51_cast))[name = tensor<string, []>("input_133_cast")];
            tensor<int32, [2]> var_442 = const()[name = tensor<string, []>("op_442"), val = tensor<int32, [2]>([1, 1])];
            tensor<int32, [2]> var_444 = const()[name = tensor<string, []>("op_444"), val = tensor<int32, [2]>([1, 1])];
            tensor<string, []> input_135_pad_type_0 = const()[name = tensor<string, []>("input_135_pad_type_0"), val = tensor<string, []>("custom")];
            tensor<int32, [4]> input_135_pad_0 = const()[name = tensor<string, []>("input_135_pad_0"), val = tensor<int32, [4]>([0, 0, 0, 0])];
            tensor<fp16, [128, 384, 1, 1]> model_model_15_cv1_conv_weight_to_fp16_palettized = constexpr_lut_to_dense()[indices = tensor<uint8, [49152]>(BLOBFILE(path = tensor<string, []>("@model_path/weights/weight.bin"), offset = tensor<uint64, []>(5692992))), lut = tensor<fp16, [256]>(BLOBFILE(path = tensor<string, []>("@model_path/weights/weight.bin"), offset = tensor<uint64, []>(5742208))), name = tensor<string, []>("model_model_15_cv1_conv_weight_to_fp16_palettized"), shape = tensor<uint32, [4]>([128, 384, 1, 1])];
            tensor<fp16, [128]> model_model_15_cv1_conv_bias_to_fp16 = const()[name = tensor<string, []>("model_model_15_cv1_conv_bias_to_fp16"), val = tensor<fp16, [128]>(BLOBFILE(path = tensor<string, []>("@model_path/weights/weight.bin"), offset = tensor<uint64, []>(5742784)))];
            tensor<fp16, [1, 128, 60, 60]> input_135_cast = conv(bias = model_model_15_cv1_conv_bias_to_fp16, dilations = var_444, groups = var_19, pad = input_135_pad_0, pad_type = input_135_pad_type_0, strides = var_442, weight = model_model_15_cv1_conv_weight_to_fp16_palettized, x = input_133_cast)[name = tensor<string, []>("input_135_cast")];
            tensor<fp16, [1, 128, 60, 60]> var_447_cast = silu(x = input_135_cast)[name = tensor<string, []>("op_447_cast")];
            tensor<int32, [2]> var_448 = const()[name = tensor<string, []>("op_448"), val = tensor<int32, [2]>([64, 64])];
            tensor<int32, []> var_449_axis_0 = const()[name = tensor<string, []>("op_449_axis_0"), val = tensor<int32, []>(1)];
            tensor<fp16, [1, 64, 60, 60]> var_449_cast_0, tensor<fp16, [1, 64, 60, 60]> var_449_cast_1 = split(axis = var_449_axis_0, split_sizes = var_448, x = var_447_cast)[name = tensor<string, []>("op_449_cast")];
            tensor<int32, [2]> var_457 = const()[name = tensor<string, []>("op_457"), val = tensor<int32, [2]>([1, 1])];
            tensor<int32, [2]> var_459 = const()[name = tensor<string, []>("op_459"), val = tensor<int32, [2]>([1, 1])];
            tensor<string, []> input_139_pad_type_0 = const()[name = tensor<string, []>("input_139_pad_type_0"), val = tensor<string, []>("custom")];
            tensor<int32, [4]> input_139_pad_0 = const()[name = tensor<string, []>("input_139_pad_0"), val = tensor<int32, [4]>([1, 1, 1, 1])];
            tensor<fp16, [64, 64, 3, 3]> model_model_15_m_0_cv1_conv_weight_to_fp16_palettized = constexpr_lut_to_dense()[indices = tensor<uint8, [36864]>(BLOBFILE(path = tensor<string, []>("@model_path/weights/weight.bin"), offset = tensor<uint64, []>(5743104))), lut = tensor<fp16, [256]>(BLOBFILE(path = tensor<string, []>("@model_path/weights/weight.bin"), offset = tensor<uint64, []>(5780032))), name = tensor<string, []>("model_model_15_m_0_cv1_conv_weight_to_fp16_palettized"), shape = tensor<uint32, [4]>([64, 64, 3, 3])];
            tensor<fp16, [64]> model_model_15_m_0_cv1_conv_bias_to_fp16 = const()[name = tensor<string, []>("model_model_15_m_0_cv1_conv_bias_to_fp16"), val = tensor<fp16, [64]>(BLOBFILE(path = tensor<string, []>("@model_path/weights/weight.bin"), offset = tensor<uint64, []>(5780608)))];
            tensor<fp16, [1, 64, 60, 60]> input_139_cast = conv(bias = model_model_15_m_0_cv1_conv_bias_to_fp16, dilations = var_459, groups = var_19, pad = input_139_pad_0, pad_type = input_139_pad_type_0, strides = var_457, weight = model_model_15_m_0_cv1_conv_weight_to_fp16_palettized, x = var_449_cast_1)[name = tensor<string, []>("input_139_cast")];
            tensor<fp16, [1, 64, 60, 60]> input_141_cast = silu(x = input_139_cast)[name = tensor<string, []>("input_141_cast")];
            tensor<int32, [2]> var_466 = const()[name = tensor<string, []>("op_466"), val = tensor<int32, [2]>([1, 1])];
            tensor<int32, [2]> var_468 = const()[name = tensor<string, []>("op_468"), val = tensor<int32, [2]>([1, 1])];
            tensor<string, []> input_143_pad_type_0 = const()[name = tensor<string, []>("input_143_pad_type_0"), val = tensor<string, []>("custom")];
            tensor<int32, [4]> input_143_pad_0 = const()[name = tensor<string, []>("input_143_pad_0"), val = tensor<int32, [4]>([1, 1, 1, 1])];
            tensor<fp16, [64, 64, 3, 3]> model_model_15_m_0_cv2_conv_weight_to_fp16_palettized = constexpr_lut_to_dense()[indices = tensor<uint8, [36864]>(BLOBFILE(path = tensor<string, []>("@model_path/weights/weight.bin"), offset = tensor<uint64, []>(5780800))), lut = tensor<fp16, [256]>(BLOBFILE(path = tensor<string, []>("@model_path/weights/weight.bin"), offset = tensor<uint64, []>(5817728))), name = tensor<string, []>("model_model_15_m_0_cv2_conv_weight_to_fp16_palettized"), shape = tensor<uint32, [4]>([64, 64, 3, 3])];
            tensor<fp16, [64]> model_model_15_m_0_cv2_conv_bias_to_fp16 = const()[name = tensor<string, []>("model_model_15_m_0_cv2_conv_bias_to_fp16"), val = tensor<fp16, [64]>(BLOBFILE(path = tensor<string, []>("@model_path/weights/weight.bin"), offset = tensor<uint64, []>(5818304)))];
            tensor<fp16, [1, 64, 60, 60]> input_143_cast = conv(bias = model_model_15_m_0_cv2_conv_bias_to_fp16, dilations = var_468, groups = var_19, pad = input_143_pad_0, pad_type = input_143_pad_type_0, strides = var_466, weight = model_model_15_m_0_cv2_conv_weight_to_fp16_palettized, x = input_141_cast)[name = tensor<string, []>("input_143_cast")];
            tensor<fp16, [1, 64, 60, 60]> var_471_cast = silu(x = input_143_cast)[name = tensor<string, []>("op_471_cast")];
            tensor<bool, []> input_145_interleave_0 = const()[name = tensor<string, []>("input_145_interleave_0"), val = tensor<bool, []>(false)];
            tensor<fp16, [1, 192, 60, 60]> input_145_cast = concat(axis = var_19, interleave = input_145_interleave_0, values = (var_449_cast_0, var_449_cast_1, var_471_cast))[name = tensor<string, []>("input_145_cast")];
            tensor<int32, [2]> var_477 = const()[name = tensor<string, []>("op_477"), val = tensor<int32, [2]>([1, 1])];
            tensor<int32, [2]> var_479 = const()[name = tensor<string, []>("op_479"), val = tensor<int32, [2]>([1, 1])];
            tensor<string, []> input_147_pad_type_0 = const()[name = tensor<string, []>("input_147_pad_type_0"), val = tensor<string, []>("custom")];
            tensor<int32, [4]> input_147_pad_0 = const()[name = tensor<string, []>("input_147_pad_0"), val = tensor<int32, [4]>([0, 0, 0, 0])];
            tensor<fp16, [128, 192, 1, 1]> model_model_15_cv2_conv_weight_to_fp16_palettized = constexpr_lut_to_dense()[indices = tensor<uint8, [24576]>(BLOBFILE(path = tensor<string, []>("@model_path/weights/weight.bin"), offset = tensor<uint64, []>(5818496))), lut = tensor<fp16, [256]>(BLOBFILE(path = tensor<string, []>("@model_path/weights/weight.bin"), offset = tensor<uint64, []>(5843136))), name = tensor<string, []>("model_model_15_cv2_conv_weight_to_fp16_palettized"), shape = tensor<uint32, [4]>([128, 192, 1, 1])];
            tensor<fp16, [128]> model_model_15_cv2_conv_bias_to_fp16 = const()[name = tensor<string, []>("model_model_15_cv2_conv_bias_to_fp16"), val = tensor<fp16, [128]>(BLOBFILE(path = tensor<string, []>("@model_path/weights/weight.bin"), offset = tensor<uint64, []>(5843712)))];
            tensor<fp16, [1, 128, 60, 60]> input_147_cast = conv(bias = model_model_15_cv2_conv_bias_to_fp16, dilations = var_479, groups = var_19, pad = input_147_pad_0, pad_type = input_147_pad_type_0, strides = var_477, weight = model_model_15_cv2_conv_weight_to_fp16_palettized, x = input_145_cast)[name = tensor<string, []>("input_147_cast")];
            tensor<fp16, [1, 128, 60, 60]> input_149_cast = silu(x = input_147_cast)[name = tensor<string, []>("input_149_cast")];
            tensor<int32, [2]> var_486 = const()[name = tensor<string, []>("op_486"), val = tensor<int32, [2]>([2, 2])];
            tensor<int32, [2]> var_488 = const()[name = tensor<string, []>("op_488"), val = tensor<int32, [2]>([1, 1])];
            tensor<string, []> input_151_pad_type_0 = const()[name = tensor<string, []>("input_151_pad_type_0"), val = tensor<string, []>("custom")];
            tensor<int32, [4]> input_151_pad_0 = const()[name = tensor<string, []>("input_151_pad_0"), val = tensor<int32, [4]>([1, 1, 1, 1])];
            tensor<fp16, [128, 128, 3, 3]> model_model_16_conv_weight_to_fp16_palettized = constexpr_lut_to_dense()[indices = tensor<uint8, [147456]>(BLOBFILE(path = tensor<string, []>("@model_path/weights/weight.bin"), offset = tensor<uint64, []>(5844032))), lut = tensor<fp16, [256]>(BLOBFILE(path = tensor<string, []>("@model_path/weights/weight.bin"), offset = tensor<uint64, []>(5991552))), name = tensor<string, []>("model_model_16_conv_weight_to_fp16_palettized"), shape = tensor<uint32, [4]>([128, 128, 3, 3])];
            tensor<fp16, [128]> model_model_16_conv_bias_to_fp16 = const()[name = tensor<string, []>("model_model_16_conv_bias_to_fp16"), val = tensor<fp16, [128]>(BLOBFILE(path = tensor<string, []>("@model_path/weights/weight.bin"), offset = tensor<uint64, []>(5992128)))];
            tensor<fp16, [1, 128, 30, 30]> input_151_cast = conv(bias = model_model_16_conv_bias_to_fp16, dilations = var_488, groups = var_19, pad = input_151_pad_0, pad_type = input_151_pad_type_0, strides = var_486, weight = model_model_16_conv_weight_to_fp16_palettized, x = input_149_cast)[name = tensor<string, []>("input_151_cast")];
            tensor<fp16, [1, 128, 30, 30]> var_491_cast = silu(x = input_151_cast)[name = tensor<string, []>("op_491_cast")];
            tensor<bool, []> input_153_interleave_0 = const()[name = tensor<string, []>("input_153_interleave_0"), val = tensor<bool, []>(false)];
            tensor<fp16, [1, 384, 30, 30]> input_153_cast = concat(axis = var_19, interleave = input_153_interleave_0, values = (var_491_cast, input_131_cast))[name = tensor<string, []>("input_153_cast")];
            tensor<int32, [2]> var_501 = const()[name = tensor<string, []>("op_501"), val = tensor<int32, [2]>([1, 1])];
            tensor<int32, [2]> var_503 = const()[name = tensor<string, []>("op_503"), val = tensor<int32, [2]>([1, 1])];
            tensor<string, []> input_155_pad_type_0 = const()[name = tensor<string, []>("input_155_pad_type_0"), val = tensor<string, []>("custom")];
            tensor<int32, [4]> input_155_pad_0 = const()[name = tensor<string, []>("input_155_pad_0"), val = tensor<int32, [4]>([0, 0, 0, 0])];
            tensor<fp16, [256, 384, 1, 1]> model_model_18_cv1_conv_weight_to_fp16_palettized = constexpr_lut_to_dense()[indices = tensor<uint8, [98304]>(BLOBFILE(path = tensor<string, []>("@model_path/weights/weight.bin"), offset = tensor<uint64, []>(5992448))), lut = tensor<fp16, [256]>(BLOBFILE(path = tensor<string, []>("@model_path/weights/weight.bin"), offset = tensor<uint64, []>(6090816))), name = tensor<string, []>("model_model_18_cv1_conv_weight_to_fp16_palettized"), shape = tensor<uint32, [4]>([256, 384, 1, 1])];
            tensor<fp16, [256]> model_model_18_cv1_conv_bias_to_fp16 = const()[name = tensor<string, []>("model_model_18_cv1_conv_bias_to_fp16"), val = tensor<fp16, [256]>(BLOBFILE(path = tensor<string, []>("@model_path/weights/weight.bin"), offset = tensor<uint64, []>(6091392)))];
            tensor<fp16, [1, 256, 30, 30]> input_155_cast = conv(bias = model_model_18_cv1_conv_bias_to_fp16, dilations = var_503, groups = var_19, pad = input_155_pad_0, pad_type = input_155_pad_type_0, strides = var_501, weight = model_model_18_cv1_conv_weight_to_fp16_palettized, x = input_153_cast)[name = tensor<string, []>("input_155_cast")];
            tensor<fp16, [1, 256, 30, 30]> var_506_cast = silu(x = input_155_cast)[name = tensor<string, []>("op_506_cast")];
            tensor<int32, [2]> var_507 = const()[name = tensor<string, []>("op_507"), val = tensor<int32, [2]>([128, 128])];
            tensor<int32, []> var_508_axis_0 = const()[name = tensor<string, []>("op_508_axis_0"), val = tensor<int32, []>(1)];
            tensor<fp16, [1, 128, 30, 30]> var_508_cast_0, tensor<fp16, [1, 128, 30, 30]> var_508_cast_1 = split(axis = var_508_axis_0, split_sizes = var_507, x = var_506_cast)[name = tensor<string, []>("op_508_cast")];
            tensor<int32, [2]> var_516 = const()[name = tensor<string, []>("op_516"), val = tensor<int32, [2]>([1, 1])];
            tensor<int32, [2]> var_518 = const()[name = tensor<string, []>("op_518"), val = tensor<int32, [2]>([1, 1])];
            tensor<string, []> input_159_pad_type_0 = const()[name = tensor<string, []>("input_159_pad_type_0"), val = tensor<string, []>("custom")];
            tensor<int32, [4]> input_159_pad_0 = const()[name = tensor<string, []>("input_159_pad_0"), val = tensor<int32, [4]>([1, 1, 1, 1])];
            tensor<fp16, [128, 128, 3, 3]> model_model_18_m_0_cv1_conv_weight_to_fp16_palettized = constexpr_lut_to_dense()[indices = tensor<uint8, [147456]>(BLOBFILE(path = tensor<string, []>("@model_path/weights/weight.bin"), offset = tensor<uint64, []>(6091968))), lut = tensor<fp16, [256]>(BLOBFILE(path = tensor<string, []>("@model_path/weights/weight.bin"), offset = tensor<uint64, []>(6239488))), name = tensor<string, []>("model_model_18_m_0_cv1_conv_weight_to_fp16_palettized"), shape = tensor<uint32, [4]>([128, 128, 3, 3])];
            tensor<fp16, [128]> model_model_18_m_0_cv1_conv_bias_to_fp16 = const()[name = tensor<string, []>("model_model_18_m_0_cv1_conv_bias_to_fp16"), val = tensor<fp16, [128]>(BLOBFILE(path = tensor<string, []>("@model_path/weights/weight.bin"), offset = tensor<uint64, []>(6240064)))];
            tensor<fp16, [1, 128, 30, 30]> input_159_cast = conv(bias = model_model_18_m_0_cv1_conv_bias_to_fp16, dilations = var_518, groups = var_19, pad = input_159_pad_0, pad_type = input_159_pad_type_0, strides = var_516, weight = model_model_18_m_0_cv1_conv_weight_to_fp16_palettized, x = var_508_cast_1)[name = tensor<string, []>("input_159_cast")];
            tensor<fp16, [1, 128, 30, 30]> input_161_cast = silu(x = input_159_cast)[name = tensor<string, []>("input_161_cast")];
            tensor<int32, [2]> var_525 = const()[name = tensor<string, []>("op_525"), val = tensor<int32, [2]>([1, 1])];
            tensor<int32, [2]> var_527 = const()[name = tensor<string, []>("op_527"), val = tensor<int32, [2]>([1, 1])];
            tensor<string, []> input_163_pad_type_0 = const()[name = tensor<string, []>("input_163_pad_type_0"), val = tensor<string, []>("custom")];
            tensor<int32, [4]> input_163_pad_0 = const()[name = tensor<string, []>("input_163_pad_0"), val = tensor<int32, [4]>([1, 1, 1, 1])];
            tensor<fp16, [128, 128, 3, 3]> model_model_18_m_0_cv2_conv_weight_to_fp16_palettized = constexpr_lut_to_dense()[indices = tensor<uint8, [147456]>(BLOBFILE(path = tensor<string, []>("@model_path/weights/weight.bin"), offset = tensor<uint64, []>(6240384))), lut = tensor<fp16, [256]>(BLOBFILE(path = tensor<string, []>("@model_path/weights/weight.bin"), offset = tensor<uint64, []>(6387904))), name = tensor<string, []>("model_model_18_m_0_cv2_conv_weight_to_fp16_palettized"), shape = tensor<uint32, [4]>([128, 128, 3, 3])];
            tensor<fp16, [128]> model_model_18_m_0_cv2_conv_bias_to_fp16 = const()[name = tensor<string, []>("model_model_18_m_0_cv2_conv_bias_to_fp16"), val = tensor<fp16, [128]>(BLOBFILE(path = tensor<string, []>("@model_path/weights/weight.bin"), offset = tensor<uint64, []>(6388480)))];
            tensor<fp16, [1, 128, 30, 30]> input_163_cast = conv(bias = model_model_18_m_0_cv2_conv_bias_to_fp16, dilations = var_527, groups = var_19, pad = input_163_pad_0, pad_type = input_163_pad_type_0, strides = var_525, weight = model_model_18_m_0_cv2_conv_weight_to_fp16_palettized, x = input_161_cast)[name = tensor<string, []>("input_163_cast")];
            tensor<fp16, [1, 128, 30, 30]> var_530_cast = silu(x = input_163_cast)[name = tensor<string, []>("op_530_cast")];
            tensor<bool, []> input_165_interleave_0 = const()[name = tensor<string, []>("input_165_interleave_0"), val = tensor<bool, []>(false)];
            tensor<fp16, [1, 384, 30, 30]> input_165_cast = concat(axis = var_19, interleave = input_165_interleave_0, values = (var_508_cast_0, var_508_cast_1, var_530_cast))[name = tensor<string, []>("input_165_cast")];
            tensor<int32, [2]> var_536 = const()[name = tensor<string, []>("op_536"), val = tensor<int32, [2]>([1, 1])];
            tensor<int32, [2]> var_538 = const()[name = tensor<string, []>("op_538"), val = tensor<int32, [2]>([1, 1])];
            tensor<string, []> input_167_pad_type_0 = const()[name = tensor<string, []>("input_167_pad_type_0"), val = tensor<string, []>("custom")];
            tensor<int32, [4]> input_167_pad_0 = const()[name = tensor<string, []>("input_167_pad_0"), val = tensor<int32, [4]>([0, 0, 0, 0])];
            tensor<fp16, [256, 384, 1, 1]> model_model_18_cv2_conv_weight_to_fp16_palettized = constexpr_lut_to_dense()[indices = tensor<uint8, [98304]>(BLOBFILE(path = tensor<string, []>("@model_path/weights/weight.bin"), offset = tensor<uint64, []>(6388800))), lut = tensor<fp16, [256]>(BLOBFILE(path = tensor<string, []>("@model_path/weights/weight.bin"), offset = tensor<uint64, []>(6487168))), name = tensor<string, []>("model_model_18_cv2_conv_weight_to_fp16_palettized"), shape = tensor<uint32, [4]>([256, 384, 1, 1])];
            tensor<fp16, [256]> model_model_18_cv2_conv_bias_to_fp16 = const()[name = tensor<string, []>("model_model_18_cv2_conv_bias_to_fp16"), val = tensor<fp16, [256]>(BLOBFILE(path = tensor<string, []>("@model_path/weights/weight.bin"), offset = tensor<uint64, []>(6487744)))];
            tensor<fp16, [1, 256, 30, 30]> input_167_cast = conv(bias = model_model_18_cv2_conv_bias_to_fp16, dilations = var_538, groups = var_19, pad = input_167_pad_0, pad_type = input_167_pad_type_0, strides = var_536, weight = model_model_18_cv2_conv_weight_to_fp16_palettized, x = input_165_cast)[name = tensor<string, []>("input_167_cast")];
            tensor<fp16, [1, 256, 30, 30]> input_169_cast = silu(x = input_167_cast)[name = tensor<string, []>("input_169_cast")];
            tensor<int32, [2]> var_545 = const()[name = tensor<string, []>("op_545"), val = tensor<int32, [2]>([2, 2])];
            tensor<int32, [2]> var_547 = const()[name = tensor<string, []>("op_547"), val = tensor<int32, [2]>([1, 1])];
            tensor<string, []> input_171_pad_type_0 = const()[name = tensor<string, []>("input_171_pad_type_0"), val = tensor<string, []>("custom")];
            tensor<int32, [4]> input_171_pad_0 = const()[name = tensor<string, []>("input_171_pad_0"), val = tensor<int32, [4]>([1, 1, 1, 1])];
            tensor<fp16, [256, 256, 3, 3]> model_model_19_conv_weight_to_fp16_palettized = constexpr_lut_to_dense()[indices = tensor<uint8, [589824]>(BLOBFILE(path = tensor<string, []>("@model_path/weights/weight.bin"), offset = tensor<uint64, []>(6488320))), lut = tensor<fp16, [256]>(BLOBFILE(path = tensor<string, []>("@model_path/weights/weight.bin"), offset = tensor<uint64, []>(7078208))), name = tensor<string, []>("model_model_19_conv_weight_to_fp16_palettized"), shape = tensor<uint32, [4]>([256, 256, 3, 3])];
            tensor<fp16, [256]> model_model_19_conv_bias_to_fp16 = const()[name = tensor<string, []>("model_model_19_conv_bias_to_fp16"), val = tensor<fp16, [256]>(BLOBFILE(path = tensor<string, []>("@model_path/weights/weight.bin"), offset = tensor<uint64, []>(7078784)))];
            tensor<fp16, [1, 256, 15, 15]> input_171_cast = conv(bias = model_model_19_conv_bias_to_fp16, dilations = var_547, groups = var_19, pad = input_171_pad_0, pad_type = input_171_pad_type_0, strides = var_545, weight = model_model_19_conv_weight_to_fp16_palettized, x = input_169_cast)[name = tensor<string, []>("input_171_cast")];
            tensor<fp16, [1, 256, 15, 15]> var_550_cast = silu(x = input_171_cast)[name = tensor<string, []>("op_550_cast")];
            tensor<bool, []> input_173_interleave_0 = const()[name = tensor<string, []>("input_173_interleave_0"), val = tensor<bool, []>(false)];
            tensor<fp16, [1, 768, 15, 15]> input_173_cast = concat(axis = var_19, interleave = input_173_interleave_0, values = (var_550_cast, input_113_cast))[name = tensor<string, []>("input_173_cast")];
            tensor<int32, [2]> var_560 = const()[name = tensor<string, []>("op_560"), val = tensor<int32, [2]>([1, 1])];
            tensor<int32, [2]> var_562 = const()[name = tensor<string, []>("op_562"), val = tensor<int32, [2]>([1, 1])];
            tensor<string, []> input_175_pad_type_0 = const()[name = tensor<string, []>("input_175_pad_type_0"), val = tensor<string, []>("custom")];
            tensor<int32, [4]> input_175_pad_0 = const()[name = tensor<string, []>("input_175_pad_0"), val = tensor<int32, [4]>([0, 0, 0, 0])];
            tensor<fp16, [512, 768, 1, 1]> model_model_21_cv1_conv_weight_to_fp16_palettized = constexpr_lut_to_dense()[indices = tensor<uint8, [393216]>(BLOBFILE(path = tensor<string, []>("@model_path/weights/weight.bin"), offset = tensor<uint64, []>(7079360))), lut = tensor<fp16, [256]>(BLOBFILE(path = tensor<string, []>("@model_path/weights/weight.bin"), offset = tensor<uint64, []>(7472640))), name = tensor<string, []>("model_model_21_cv1_conv_weight_to_fp16_palettized"), shape = tensor<uint32, [4]>([512, 768, 1, 1])];
            tensor<fp16, [512]> model_model_21_cv1_conv_bias_to_fp16 = const()[name = tensor<string, []>("model_model_21_cv1_conv_bias_to_fp16"), val = tensor<fp16, [512]>(BLOBFILE(path = tensor<string, []>("@model_path/weights/weight.bin"), offset = tensor<uint64, []>(7473216)))];
            tensor<fp16, [1, 512, 15, 15]> input_175_cast = conv(bias = model_model_21_cv1_conv_bias_to_fp16, dilations = var_562, groups = var_19, pad = input_175_pad_0, pad_type = input_175_pad_type_0, strides = var_560, weight = model_model_21_cv1_conv_weight_to_fp16_palettized, x = input_173_cast)[name = tensor<string, []>("input_175_cast")];
            tensor<fp16, [1, 512, 15, 15]> var_565_cast = silu(x = input_175_cast)[name = tensor<string, []>("op_565_cast")];
            tensor<int32, [2]> var_566 = const()[name = tensor<string, []>("op_566"), val = tensor<int32, [2]>([256, 256])];
            tensor<int32, []> var_567_axis_0 = const()[name = tensor<string, []>("op_567_axis_0"), val = tensor<int32, []>(1)];
            tensor<fp16, [1, 256, 15, 15]> var_567_cast_0, tensor<fp16, [1, 256, 15, 15]> var_567_cast_1 = split(axis = var_567_axis_0, split_sizes = var_566, x = var_565_cast)[name = tensor<string, []>("op_567_cast")];
            tensor<int32, [2]> var_575 = const()[name = tensor<string, []>("op_575"), val = tensor<int32, [2]>([1, 1])];
            tensor<int32, [2]> var_577 = const()[name = tensor<string, []>("op_577"), val = tensor<int32, [2]>([1, 1])];
            tensor<string, []> input_179_pad_type_0 = const()[name = tensor<string, []>("input_179_pad_type_0"), val = tensor<string, []>("custom")];
            tensor<int32, [4]> input_179_pad_0 = const()[name = tensor<string, []>("input_179_pad_0"), val = tensor<int32, [4]>([1, 1, 1, 1])];
            tensor<fp16, [256, 256, 3, 3]> model_model_21_m_0_cv1_conv_weight_to_fp16_palettized = constexpr_lut_to_dense()[indices = tensor<uint8, [589824]>(BLOBFILE(path = tensor<string, []>("@model_path/weights/weight.bin"), offset = tensor<uint64, []>(7474304))), lut = tensor<fp16, [256]>(BLOBFILE(path = tensor<string, []>("@model_path/weights/weight.bin"), offset = tensor<uint64, []>(8064192))), name = tensor<string, []>("model_model_21_m_0_cv1_conv_weight_to_fp16_palettized"), shape = tensor<uint32, [4]>([256, 256, 3, 3])];
            tensor<fp16, [256]> model_model_21_m_0_cv1_conv_bias_to_fp16 = const()[name = tensor<string, []>("model_model_21_m_0_cv1_conv_bias_to_fp16"), val = tensor<fp16, [256]>(BLOBFILE(path = tensor<string, []>("@model_path/weights/weight.bin"), offset = tensor<uint64, []>(8064768)))];
            tensor<fp16, [1, 256, 15, 15]> input_179_cast = conv(bias = model_model_21_m_0_cv1_conv_bias_to_fp16, dilations = var_577, groups = var_19, pad = input_179_pad_0, pad_type = input_179_pad_type_0, strides = var_575, weight = model_model_21_m_0_cv1_conv_weight_to_fp16_palettized, x = var_567_cast_1)[name = tensor<string, []>("input_179_cast")];
            tensor<fp16, [1, 256, 15, 15]> input_181_cast = silu(x = input_179_cast)[name = tensor<string, []>("input_181_cast")];
            tensor<int32, [2]> var_584 = const()[name = tensor<string, []>("op_584"), val = tensor<int32, [2]>([1, 1])];
            tensor<int32, [2]> var_586 = const()[name = tensor<string, []>("op_586"), val = tensor<int32, [2]>([1, 1])];
            tensor<string, []> input_183_pad_type_0 = const()[name = tensor<string, []>("input_183_pad_type_0"), val = tensor<string, []>("custom")];
            tensor<int32, [4]> input_183_pad_0 = const()[name = tensor<string, []>("input_183_pad_0"), val = tensor<int32, [4]>([1, 1, 1, 1])];
            tensor<fp16, [256, 256, 3, 3]> model_model_21_m_0_cv2_conv_weight_to_fp16_palettized = constexpr_lut_to_dense()[indices = tensor<uint8, [589824]>(BLOBFILE(path = tensor<string, []>("@model_path/weights/weight.bin"), offset = tensor<uint64, []>(8065344))), lut = tensor<fp16, [256]>(BLOBFILE(path = tensor<string, []>("@model_path/weights/weight.bin"), offset = tensor<uint64, []>(8655232))), name = tensor<string, []>("model_model_21_m_0_cv2_conv_weight_to_fp16_palettized"), shape = tensor<uint32, [4]>([256, 256, 3, 3])];
            tensor<fp16, [256]> model_model_21_m_0_cv2_conv_bias_to_fp16 = const()[name = tensor<string, []>("model_model_21_m_0_cv2_conv_bias_to_fp16"), val = tensor<fp16, [256]>(BLOBFILE(path = tensor<string, []>("@model_path/weights/weight.bin"), offset = tensor<uint64, []>(8655808)))];
            tensor<fp16, [1, 256, 15, 15]> input_183_cast = conv(bias = model_model_21_m_0_cv2_conv_bias_to_fp16, dilations = var_586, groups = var_19, pad = input_183_pad_0, pad_type = input_183_pad_type_0, strides = var_584, weight = model_model_21_m_0_cv2_conv_weight_to_fp16_palettized, x = input_181_cast)[name = tensor<string, []>("input_183_cast")];
            tensor<fp16, [1, 256, 15, 15]> var_589_cast = silu(x = input_183_cast)[name = tensor<string, []>("op_589_cast")];
            tensor<bool, []> input_185_interleave_0 = const()[name = tensor<string, []>("input_185_interleave_0"), val = tensor<bool, []>(false)];
            tensor<fp16, [1, 768, 15, 15]> input_185_cast = concat(axis = var_19, interleave = input_185_interleave_0, values = (var_567_cast_0, var_567_cast_1, var_589_cast))[name = tensor<string, []>("input_185_cast")];
            tensor<int32, [2]> var_595 = const()[name = tensor<string, []>("op_595"), val = tensor<int32, [2]>([1, 1])];
            tensor<int32, [2]> var_597 = const()[name = tensor<string, []>("op_597"), val = tensor<int32, [2]>([1, 1])];
            tensor<string, []> input_187_pad_type_0 = const()[name = tensor<string, []>("input_187_pad_type_0"), val = tensor<string, []>("custom")];
            tensor<int32, [4]> input_187_pad_0 = const()[name = tensor<string, []>("input_187_pad_0"), val = tensor<int32, [4]>([0, 0, 0, 0])];
            tensor<fp16, [512, 768, 1, 1]> model_model_21_cv2_conv_weight_to_fp16_palettized = constexpr_lut_to_dense()[indices = tensor<uint8, [393216]>(BLOBFILE(path = tensor<string, []>("@model_path/weights/weight.bin"), offset = tensor<uint64, []>(8656384))), lut = tensor<fp16, [256]>(BLOBFILE(path = tensor<string, []>("@model_path/weights/weight.bin"), offset = tensor<uint64, []>(9049664))), name = tensor<string, []>("model_model_21_cv2_conv_weight_to_fp16_palettized"), shape = tensor<uint32, [4]>([512, 768, 1, 1])];
            tensor<fp16, [512]> model_model_21_cv2_conv_bias_to_fp16 = const()[name = tensor<string, []>("model_model_21_cv2_conv_bias_to_fp16"), val = tensor<fp16, [512]>(BLOBFILE(path = tensor<string, []>("@model_path/weights/weight.bin"), offset = tensor<uint64, []>(9050240)))];
            tensor<fp16, [1, 512, 15, 15]> input_187_cast = conv(bias = model_model_21_cv2_conv_bias_to_fp16, dilations = var_597, groups = var_19, pad = input_187_pad_0, pad_type = input_187_pad_type_0, strides = var_595, weight = model_model_21_cv2_conv_weight_to_fp16_palettized, x = input_185_cast)[name = tensor<string, []>("input_187_cast")];
            tensor<fp16, [1, 512, 15, 15]> input_221_cast = silu(x = input_187_cast)[name = tensor<string, []>("input_221_cast")];
            tensor<int32, [2]> var_621 = const()[name = tensor<string, []>("op_621"), val = tensor<int32, [2]>([1, 1])];
            tensor<int32, [2]> var_623 = const()[name = tensor<string, []>("op_623"), val = tensor<int32, [2]>([1, 1])];
            tensor<string, []> input_189_pad_type_0 = const()[name = tensor<string, []>("input_189_pad_type_0"), val = tensor<string, []>("custom")];
            tensor<int32, [4]> input_189_pad_0 = const()[name = tensor<string, []>("input_189_pad_0"), val = tensor<int32, [4]>([1, 1, 1, 1])];
            tensor<fp16, [64, 128, 3, 3]> model_model_22_cv2_0_0_conv_weight_to_fp16_palettized = constexpr_lut_to_dense()[indices = tensor<uint8, [73728]>(BLOBFILE(path = tensor<string, []>("@model_path/weights/weight.bin"), offset = tensor<uint64, []>(9051328))), lut = tensor<fp16, [256]>(BLOBFILE(path = tensor<string, []>("@model_path/weights/weight.bin"), offset = tensor<uint64, []>(9125120))), name = tensor<string, []>("model_model_22_cv2_0_0_conv_weight_to_fp16_palettized"), shape = tensor<uint32, [4]>([64, 128, 3, 3])];
            tensor<fp16, [64]> model_model_22_cv2_0_0_conv_bias_to_fp16 = const()[name = tensor<string, []>("model_model_22_cv2_0_0_conv_bias_to_fp16"), val = tensor<fp16, [64]>(BLOBFILE(path = tensor<string, []>("@model_path/weights/weight.bin"), offset = tensor<uint64, []>(9125696)))];
            tensor<fp16, [1, 64, 60, 60]> input_189_cast = conv(bias = model_model_22_cv2_0_0_conv_bias_to_fp16, dilations = var_623, groups = var_19, pad = input_189_pad_0, pad_type = input_189_pad_type_0, strides = var_621, weight = model_model_22_cv2_0_0_conv_weight_to_fp16_palettized, x = input_149_cast)[name = tensor<string, []>("input_189_cast")];
            tensor<fp16, [1, 64, 60, 60]> input_191_cast = silu(x = input_189_cast)[name = tensor<string, []>("input_191_cast")];
            tensor<int32, [2]> var_630 = const()[name = tensor<string, []>("op_630"), val = tensor<int32, [2]>([1, 1])];
            tensor<int32, [2]> var_632 = const()[name = tensor<string, []>("op_632"), val = tensor<int32, [2]>([1, 1])];
            tensor<string, []> input_193_pad_type_0 = const()[name = tensor<string, []>("input_193_pad_type_0"), val = tensor<string, []>("custom")];
            tensor<int32, [4]> input_193_pad_0 = const()[name = tensor<string, []>("input_193_pad_0"), val = tensor<int32, [4]>([1, 1, 1, 1])];
            tensor<fp16, [64, 64, 3, 3]> model_model_22_cv2_0_1_conv_weight_to_fp16_palettized = constexpr_lut_to_dense()[indices = tensor<uint8, [36864]>(BLOBFILE(path = tensor<string, []>("@model_path/weights/weight.bin"), offset = tensor<uint64, []>(9125888))), lut = tensor<fp16, [256]>(BLOBFILE(path = tensor<string, []>("@model_path/weights/weight.bin"), offset = tensor<uint64, []>(9162816))), name = tensor<string, []>("model_model_22_cv2_0_1_conv_weight_to_fp16_palettized"), shape = tensor<uint32, [4]>([64, 64, 3, 3])];
            tensor<fp16, [64]> model_model_22_cv2_0_1_conv_bias_to_fp16 = const()[name = tensor<string, []>("model_model_22_cv2_0_1_conv_bias_to_fp16"), val = tensor<fp16, [64]>(BLOBFILE(path = tensor<string, []>("@model_path/weights/weight.bin"), offset = tensor<uint64, []>(9163392)))];
            tensor<fp16, [1, 64, 60, 60]> input_193_cast = conv(bias = model_model_22_cv2_0_1_conv_bias_to_fp16, dilations = var_632, groups = var_19, pad = input_193_pad_0, pad_type = input_193_pad_type_0, strides = var_630, weight = model_model_22_cv2_0_1_conv_weight_to_fp16_palettized, x = input_191_cast)[name = tensor<string, []>("input_193_cast")];
            tensor<fp16, [1, 64, 60, 60]> input_195_cast = silu(x = input_193_cast)[name = tensor<string, []>("input_195_cast")];
            tensor<int32, [2]> var_638 = const()[name = tensor<string, []>("op_638"), val = tensor<int32, [2]>([1, 1])];
            tensor<int32, [2]> var_640 = const()[name = tensor<string, []>("op_640"), val = tensor<int32, [2]>([1, 1])];
            tensor<string, []> var_642_pad_type_0 = const()[name = tensor<string, []>("op_642_pad_type_0"), val = tensor<string, []>("custom")];
            tensor<int32, [4]> var_642_pad_0 = const()[name = tensor<string, []>("op_642_pad_0"), val = tensor<int32, [4]>([0, 0, 0, 0])];
            tensor<fp16, [64, 64, 1, 1]> model_model_22_cv2_0_2_weight_to_fp16_palettized = constexpr_lut_to_dense()[indices = tensor<uint8, [4096]>(BLOBFILE(path = tensor<string, []>("@model_path/weights/weight.bin"), offset = tensor<uint64, []>(9163584))), lut = tensor<fp16, [256]>(BLOBFILE(path = tensor<string, []>("@model_path/weights/weight.bin"), offset = tensor<uint64, []>(9167744))), name = tensor<string, []>("model_model_22_cv2_0_2_weight_to_fp16_palettized"), shape = tensor<uint32, [4]>([64, 64, 1, 1])];
            tensor<fp16, [64]> model_model_22_cv2_0_2_bias_to_fp16 = const()[name = tensor<string, []>("model_model_22_cv2_0_2_bias_to_fp16"), val = tensor<fp16, [64]>(BLOBFILE(path = tensor<string, []>("@model_path/weights/weight.bin"), offset = tensor<uint64, []>(9168320)))];
            tensor<fp16, [1, 64, 60, 60]> var_642_cast = conv(bias = model_model_22_cv2_0_2_bias_to_fp16, dilations = var_640, groups = var_19, pad = var_642_pad_0, pad_type = var_642_pad_type_0, strides = var_638, weight = model_model_22_cv2_0_2_weight_to_fp16_palettized, x = input_195_cast)[name = tensor<string, []>("op_642_cast")];
            tensor<int32, [2]> var_649 = const()[name = tensor<string, []>("op_649"), val = tensor<int32, [2]>([1, 1])];
            tensor<int32, [2]> var_651 = const()[name = tensor<string, []>("op_651"), val = tensor<int32, [2]>([1, 1])];
            tensor<string, []> input_197_pad_type_0 = const()[name = tensor<string, []>("input_197_pad_type_0"), val = tensor<string, []>("custom")];
            tensor<int32, [4]> input_197_pad_0 = const()[name = tensor<string, []>("input_197_pad_0"), val = tensor<int32, [4]>([1, 1, 1, 1])];
            tensor<fp16, [128, 128, 3, 3]> model_model_22_cv3_0_0_conv_weight_to_fp16_palettized = constexpr_lut_to_dense()[indices = tensor<uint8, [147456]>(BLOBFILE(path = tensor<string, []>("@model_path/weights/weight.bin"), offset = tensor<uint64, []>(9168512))), lut = tensor<fp16, [256]>(BLOBFILE(path = tensor<string, []>("@model_path/weights/weight.bin"), offset = tensor<uint64, []>(9316032))), name = tensor<string, []>("model_model_22_cv3_0_0_conv_weight_to_fp16_palettized"), shape = tensor<uint32, [4]>([128, 128, 3, 3])];
            tensor<fp16, [128]> model_model_22_cv3_0_0_conv_bias_to_fp16 = const()[name = tensor<string, []>("model_model_22_cv3_0_0_conv_bias_to_fp16"), val = tensor<fp16, [128]>(BLOBFILE(path = tensor<string, []>("@model_path/weights/weight.bin"), offset = tensor<uint64, []>(9316608)))];
            tensor<fp16, [1, 128, 60, 60]> input_197_cast = conv(bias = model_model_22_cv3_0_0_conv_bias_to_fp16, dilations = var_651, groups = var_19, pad = input_197_pad_0, pad_type = input_197_pad_type_0, strides = var_649, weight = model_model_22_cv3_0_0_conv_weight_to_fp16_palettized, x = input_149_cast)[name = tensor<string, []>("input_197_cast")];
            tensor<fp16, [1, 128, 60, 60]> input_199_cast = silu(x = input_197_cast)[name = tensor<string, []>("input_199_cast")];
            tensor<int32, [2]> var_658 = const()[name = tensor<string, []>("op_658"), val = tensor<int32, [2]>([1, 1])];
            tensor<int32, [2]> var_660 = const()[name = tensor<string, []>("op_660"), val = tensor<int32, [2]>([1, 1])];
            tensor<string, []> input_201_pad_type_0 = const()[name = tensor<string, []>("input_201_pad_type_0"), val = tensor<string, []>("custom")];
            tensor<int32, [4]> input_201_pad_0 = const()[name = tensor<string, []>("input_201_pad_0"), val = tensor<int32, [4]>([1, 1, 1, 1])];
            tensor<fp16, [128, 128, 3, 3]> model_model_22_cv3_0_1_conv_weight_to_fp16_palettized = constexpr_lut_to_dense()[indices = tensor<uint8, [147456]>(BLOBFILE(path = tensor<string, []>("@model_path/weights/weight.bin"), offset = tensor<uint64, []>(9316928))), lut = tensor<fp16, [256]>(BLOBFILE(path = tensor<string, []>("@model_path/weights/weight.bin"), offset = tensor<uint64, []>(9464448))), name = tensor<string, []>("model_model_22_cv3_0_1_conv_weight_to_fp16_palettized"), shape = tensor<uint32, [4]>([128, 128, 3, 3])];
            tensor<fp16, [128]> model_model_22_cv3_0_1_conv_bias_to_fp16 = const()[name = tensor<string, []>("model_model_22_cv3_0_1_conv_bias_to_fp16"), val = tensor<fp16, [128]>(BLOBFILE(path = tensor<string, []>("@model_path/weights/weight.bin"), offset = tensor<uint64, []>(9465024)))];
            tensor<fp16, [1, 128, 60, 60]> input_201_cast = conv(bias = model_model_22_cv3_0_1_conv_bias_to_fp16, dilations = var_660, groups = var_19, pad = input_201_pad_0, pad_type = input_201_pad_type_0, strides = var_658, weight = model_model_22_cv3_0_1_conv_weight_to_fp16_palettized, x = input_199_cast)[name = tensor<string, []>("input_201_cast")];
            tensor<fp16, [1, 128, 60, 60]> input_203_cast = silu(x = input_201_cast)[name = tensor<string, []>("input_203_cast")];
            tensor<int32, [2]> var_666 = const()[name = tensor<string, []>("op_666"), val = tensor<int32, [2]>([1, 1])];
            tensor<int32, [2]> var_668 = const()[name = tensor<string, []>("op_668"), val = tensor<int32, [2]>([1, 1])];
            tensor<string, []> var_670_pad_type_0 = const()[name = tensor<string, []>("op_670_pad_type_0"), val = tensor<string, []>("custom")];
            tensor<int32, [4]> var_670_pad_0 = const()[name = tensor<string, []>("op_670_pad_0"), val = tensor<int32, [4]>([0, 0, 0, 0])];
            tensor<fp16, [1, 128, 1, 1]> model_model_22_cv3_0_2_weight_to_fp16 = const()[name = tensor<string, []>("model_model_22_cv3_0_2_weight_to_fp16"), val = tensor<fp16, [1, 128, 1, 1]>(BLOBFILE(path = tensor<string, []>("@model_path/weights/weight.bin"), offset = tensor<uint64, []>(9465344)))];
            tensor<fp16, [1]> model_model_22_cv3_0_2_bias_to_fp16 = const()[name = tensor<string, []>("model_model_22_cv3_0_2_bias_to_fp16"), val = tensor<fp16, [1]>([-0x1.edcp+2])];
            tensor<fp16, [1, 1, 60, 60]> var_670_cast = conv(bias = model_model_22_cv3_0_2_bias_to_fp16, dilations = var_668, groups = var_19, pad = var_670_pad_0, pad_type = var_670_pad_type_0, strides = var_666, weight = model_model_22_cv3_0_2_weight_to_fp16, x = input_203_cast)[name = tensor<string, []>("op_670_cast")];
            tensor<bool, []> xi_1_interleave_0 = const()[name = tensor<string, []>("xi_1_interleave_0"), val = tensor<bool, []>(false)];
            tensor<fp16, [1, 65, 60, 60]> xi_1_cast = concat(axis = var_19, interleave = xi_1_interleave_0, values = (var_642_cast, var_670_cast))[name = tensor<string, []>("xi_1_cast")];
            tensor<int32, [2]> var_679 = const()[name = tensor<string, []>("op_679"), val = tensor<int32, [2]>([1, 1])];
            tensor<int32, [2]> var_681 = const()[name = tensor<string, []>("op_681"), val = tensor<int32, [2]>([1, 1])];
            tensor<string, []> input_205_pad_type_0 = const()[name = tensor<string, []>("input_205_pad_type_0"), val = tensor<string, []>("custom")];
            tensor<int32, [4]> input_205_pad_0 = const()[name = tensor<string, []>("input_205_pad_0"), val = tensor<int32, [4]>([1, 1, 1, 1])];
            tensor<fp16, [64, 256, 3, 3]> model_model_22_cv2_1_0_conv_weight_to_fp16_palettized = constexpr_lut_to_dense()[indices = tensor<uint8, [147456]>(BLOBFILE(path = tensor<string, []>("@model_path/weights/weight.bin"), offset = tensor<uint64, []>(9465664))), lut = tensor<fp16, [256]>(BLOBFILE(path = tensor<string, []>("@model_path/weights/weight.bin"), offset = tensor<uint64, []>(9613184))), name = tensor<string, []>("model_model_22_cv2_1_0_conv_weight_to_fp16_palettized"), shape = tensor<uint32, [4]>([64, 256, 3, 3])];
            tensor<fp16, [64]> model_model_22_cv2_1_0_conv_bias_to_fp16 = const()[name = tensor<string, []>("model_model_22_cv2_1_0_conv_bias_to_fp16"), val = tensor<fp16, [64]>(BLOBFILE(path = tensor<string, []>("@model_path/weights/weight.bin"), offset = tensor<uint64, []>(9613760)))];
            tensor<fp16, [1, 64, 30, 30]> input_205_cast = conv(bias = model_model_22_cv2_1_0_conv_bias_to_fp16, dilations = var_681, groups = var_19, pad = input_205_pad_0, pad_type = input_205_pad_type_0, strides = var_679, weight = model_model_22_cv2_1_0_conv_weight_to_fp16_palettized, x = input_169_cast)[name = tensor<string, []>("input_205_cast")];
            tensor<fp16, [1, 64, 30, 30]> input_207_cast = silu(x = input_205_cast)[name = tensor<string, []>("input_207_cast")];
            tensor<int32, [2]> var_688 = const()[name = tensor<string, []>("op_688"), val = tensor<int32, [2]>([1, 1])];
            tensor<int32, [2]> var_690 = const()[name = tensor<string, []>("op_690"), val = tensor<int32, [2]>([1, 1])];
            tensor<string, []> input_209_pad_type_0 = const()[name = tensor<string, []>("input_209_pad_type_0"), val = tensor<string, []>("custom")];
            tensor<int32, [4]> input_209_pad_0 = const()[name = tensor<string, []>("input_209_pad_0"), val = tensor<int32, [4]>([1, 1, 1, 1])];
            tensor<fp16, [64, 64, 3, 3]> model_model_22_cv2_1_1_conv_weight_to_fp16_palettized = constexpr_lut_to_dense()[indices = tensor<uint8, [36864]>(BLOBFILE(path = tensor<string, []>("@model_path/weights/weight.bin"), offset = tensor<uint64, []>(9613952))), lut = tensor<fp16, [256]>(BLOBFILE(path = tensor<string, []>("@model_path/weights/weight.bin"), offset = tensor<uint64, []>(9650880))), name = tensor<string, []>("model_model_22_cv2_1_1_conv_weight_to_fp16_palettized"), shape = tensor<uint32, [4]>([64, 64, 3, 3])];
            tensor<fp16, [64]> model_model_22_cv2_1_1_conv_bias_to_fp16 = const()[name = tensor<string, []>("model_model_22_cv2_1_1_conv_bias_to_fp16"), val = tensor<fp16, [64]>(BLOBFILE(path = tensor<string, []>("@model_path/weights/weight.bin"), offset = tensor<uint64, []>(9651456)))];
            tensor<fp16, [1, 64, 30, 30]> input_209_cast = conv(bias = model_model_22_cv2_1_1_conv_bias_to_fp16, dilations = var_690, groups = var_19, pad = input_209_pad_0, pad_type = input_209_pad_type_0, strides = var_688, weight = model_model_22_cv2_1_1_conv_weight_to_fp16_palettized, x = input_207_cast)[name = tensor<string, []>("input_209_cast")];
            tensor<fp16, [1, 64, 30, 30]> input_211_cast = silu(x = input_209_cast)[name = tensor<string, []>("input_211_cast")];
            tensor<int32, [2]> var_696 = const()[name = tensor<string, []>("op_696"), val = tensor<int32, [2]>([1, 1])];
            tensor<int32, [2]> var_698 = const()[name = tensor<string, []>("op_698"), val = tensor<int32, [2]>([1, 1])];
            tensor<string, []> var_700_pad_type_0 = const()[name = tensor<string, []>("op_700_pad_type_0"), val = tensor<string, []>("custom")];
            tensor<int32, [4]> var_700_pad_0 = const()[name = tensor<string, []>("op_700_pad_0"), val = tensor<int32, [4]>([0, 0, 0, 0])];
            tensor<fp16, [64, 64, 1, 1]> model_model_22_cv2_1_2_weight_to_fp16_palettized = constexpr_lut_to_dense()[indices = tensor<uint8, [4096]>(BLOBFILE(path = tensor<string, []>("@model_path/weights/weight.bin"), offset = tensor<uint64, []>(9651648))), lut = tensor<fp16, [256]>(BLOBFILE(path = tensor<string, []>("@model_path/weights/weight.bin"), offset = tensor<uint64, []>(9655808))), name = tensor<string, []>("model_model_22_cv2_1_2_weight_to_fp16_palettized"), shape = tensor<uint32, [4]>([64, 64, 1, 1])];
            tensor<fp16, [64]> model_model_22_cv2_1_2_bias_to_fp16 = const()[name = tensor<string, []>("model_model_22_cv2_1_2_bias_to_fp16"), val = tensor<fp16, [64]>(BLOBFILE(path = tensor<string, []>("@model_path/weights/weight.bin"), offset = tensor<uint64, []>(9656384)))];
            tensor<fp16, [1, 64, 30, 30]> var_700_cast = conv(bias = model_model_22_cv2_1_2_bias_to_fp16, dilations = var_698, groups = var_19, pad = var_700_pad_0, pad_type = var_700_pad_type_0, strides = var_696, weight = model_model_22_cv2_1_2_weight_to_fp16_palettized, x = input_211_cast)[name = tensor<string, []>("op_700_cast")];
            tensor<int32, [2]> var_707 = const()[name = tensor<string, []>("op_707"), val = tensor<int32, [2]>([1, 1])];
            tensor<int32, [2]> var_709 = const()[name = tensor<string, []>("op_709"), val = tensor<int32, [2]>([1, 1])];
            tensor<string, []> input_213_pad_type_0 = const()[name = tensor<string, []>("input_213_pad_type_0"), val = tensor<string, []>("custom")];
            tensor<int32, [4]> input_213_pad_0 = const()[name = tensor<string, []>("input_213_pad_0"), val = tensor<int32, [4]>([1, 1, 1, 1])];
            tensor<fp16, [128, 256, 3, 3]> model_model_22_cv3_1_0_conv_weight_to_fp16_palettized = constexpr_lut_to_dense()[indices = tensor<uint8, [294912]>(BLOBFILE(path = tensor<string, []>("@model_path/weights/weight.bin"), offset = tensor<uint64, []>(9656576))), lut = tensor<fp16, [256]>(BLOBFILE(path = tensor<string, []>("@model_path/weights/weight.bin"), offset = tensor<uint64, []>(9951552))), name = tensor<string, []>("model_model_22_cv3_1_0_conv_weight_to_fp16_palettized"), shape = tensor<uint32, [4]>([128, 256, 3, 3])];
            tensor<fp16, [128]> model_model_22_cv3_1_0_conv_bias_to_fp16 = const()[name = tensor<string, []>("model_model_22_cv3_1_0_conv_bias_to_fp16"), val = tensor<fp16, [128]>(BLOBFILE(path = tensor<string, []>("@model_path/weights/weight.bin"), offset = tensor<uint64, []>(9952128)))];
            tensor<fp16, [1, 128, 30, 30]> input_213_cast = conv(bias = model_model_22_cv3_1_0_conv_bias_to_fp16, dilations = var_709, groups = var_19, pad = input_213_pad_0, pad_type = input_213_pad_type_0, strides = var_707, weight = model_model_22_cv3_1_0_conv_weight_to_fp16_palettized, x = input_169_cast)[name = tensor<string, []>("input_213_cast")];
            tensor<fp16, [1, 128, 30, 30]> input_215_cast = silu(x = input_213_cast)[name = tensor<string, []>("input_215_cast")];
            tensor<int32, [2]> var_716 = const()[name = tensor<string, []>("op_716"), val = tensor<int32, [2]>([1, 1])];
            tensor<int32, [2]> var_718 = const()[name = tensor<string, []>("op_718"), val = tensor<int32, [2]>([1, 1])];
            tensor<string, []> input_217_pad_type_0 = const()[name = tensor<string, []>("input_217_pad_type_0"), val = tensor<string, []>("custom")];
            tensor<int32, [4]> input_217_pad_0 = const()[name = tensor<string, []>("input_217_pad_0"), val = tensor<int32, [4]>([1, 1, 1, 1])];
            tensor<fp16, [128, 128, 3, 3]> model_model_22_cv3_1_1_conv_weight_to_fp16_palettized = constexpr_lut_to_dense()[indices = tensor<uint8, [147456]>(BLOBFILE(path = tensor<string, []>("@model_path/weights/weight.bin"), offset = tensor<uint64, []>(9952448))), lut = tensor<fp16, [256]>(BLOBFILE(path = tensor<string, []>("@model_path/weights/weight.bin"), offset = tensor<uint64, []>(10099968))), name = tensor<string, []>("model_model_22_cv3_1_1_conv_weight_to_fp16_palettized"), shape = tensor<uint32, [4]>([128, 128, 3, 3])];
            tensor<fp16, [128]> model_model_22_cv3_1_1_conv_bias_to_fp16 = const()[name = tensor<string, []>("model_model_22_cv3_1_1_conv_bias_to_fp16"), val = tensor<fp16, [128]>(BLOBFILE(path = tensor<string, []>("@model_path/weights/weight.bin"), offset = tensor<uint64, []>(10100544)))];
            tensor<fp16, [1, 128, 30, 30]> input_217_cast = conv(bias = model_model_22_cv3_1_1_conv_bias_to_fp16, dilations = var_718, groups = var_19, pad = input_217_pad_0, pad_type = input_217_pad_type_0, strides = var_716, weight = model_model_22_cv3_1_1_conv_weight_to_fp16_palettized, x = input_215_cast)[name = tensor<string, []>("input_217_cast")];
            tensor<fp16, [1, 128, 30, 30]> input_219_cast = silu(x = input_217_cast)[name = tensor<string, []>("input_219_cast")];
            tensor<int32, [2]> var_724 = const()[name = tensor<string, []>("op_724"), val = tensor<int32, [2]>([1, 1])];
            tensor<int32, [2]> var_726 = const()[name = tensor<string, []>("op_726"), val = tensor<int32, [2]>([1, 1])];
            tensor<string, []> var_728_pad_type_0 = const()[name = tensor<string, []>("op_728_pad_type_0"), val = tensor<string, []>("custom")];
            tensor<int32, [4]> var_728_pad_0 = const()[name = tensor<string, []>("op_728_pad_0"), val = tensor<int32, [4]>([0, 0, 0, 0])];
            tensor<fp16, [1, 128, 1, 1]> model_model_22_cv3_1_2_weight_to_fp16 = const()[name = tensor<string, []>("model_model_22_cv3_1_2_weight_to_fp16"), val = tensor<fp16, [1, 128, 1, 1]>(BLOBFILE(path = tensor<string, []>("@model_path/weights/weight.bin"), offset = tensor<uint64, []>(10100864)))];
            tensor<fp16, [1]> model_model_22_cv3_1_2_bias_to_fp16 = const()[name = tensor<string, []>("model_model_22_cv3_1_2_bias_to_fp16"), val = tensor<fp16, [1]>([-0x1.b68p+2])];
            tensor<fp16, [1, 1, 30, 30]> var_728_cast = conv(bias = model_model_22_cv3_1_2_bias_to_fp16, dilations = var_726, groups = var_19, pad = var_728_pad_0, pad_type = var_728_pad_type_0, strides = var_724, weight = model_model_22_cv3_1_2_weight_to_fp16, x = input_219_cast)[name = tensor<string, []>("op_728_cast")];
            tensor<bool, []> xi_3_interleave_0 = const()[name = tensor<string, []>("xi_3_interleave_0"), val = tensor<bool, []>(false)];
            tensor<fp16, [1, 65, 30, 30]> xi_3_cast = concat(axis = var_19, interleave = xi_3_interleave_0, values = (var_700_cast, var_728_cast))[name = tensor<string, []>("xi_3_cast")];
            tensor<int32, [2]> var_737 = const()[name = tensor<string, []>("op_737"), val = tensor<int32, [2]>([1, 1])];
            tensor<int32, [2]> var_739 = const()[name = tensor<string, []>("op_739"), val = tensor<int32, [2]>([1, 1])];
            tensor<string, []> input_223_pad_type_0 = const()[name = tensor<string, []>("input_223_pad_type_0"), val = tensor<string, []>("custom")];
            tensor<int32, [4]> input_223_pad_0 = const()[name = tensor<string, []>("input_223_pad_0"), val = tensor<int32, [4]>([1, 1, 1, 1])];
            tensor<fp16, [64, 512, 3, 3]> model_model_22_cv2_2_0_conv_weight_to_fp16_palettized = constexpr_lut_to_dense()[indices = tensor<uint8, [294912]>(BLOBFILE(path = tensor<string, []>("@model_path/weights/weight.bin"), offset = tensor<uint64, []>(10101184))), lut = tensor<fp16, [256]>(BLOBFILE(path = tensor<string, []>("@model_path/weights/weight.bin"), offset = tensor<uint64, []>(10396160))), name = tensor<string, []>("model_model_22_cv2_2_0_conv_weight_to_fp16_palettized"), shape = tensor<uint32, [4]>([64, 512, 3, 3])];
            tensor<fp16, [64]> model_model_22_cv2_2_0_conv_bias_to_fp16 = const()[name = tensor<string, []>("model_model_22_cv2_2_0_conv_bias_to_fp16"), val = tensor<fp16, [64]>(BLOBFILE(path = tensor<string, []>("@model_path/weights/weight.bin"), offset = tensor<uint64, []>(10396736)))];
            tensor<fp16, [1, 64, 15, 15]> input_223_cast = conv(bias = model_model_22_cv2_2_0_conv_bias_to_fp16, dilations = var_739, groups = var_19, pad = input_223_pad_0, pad_type = input_223_pad_type_0, strides = var_737, weight = model_model_22_cv2_2_0_conv_weight_to_fp16_palettized, x = input_221_cast)[name = tensor<string, []>("input_223_cast")];
            tensor<fp16, [1, 64, 15, 15]> input_225_cast = silu(x = input_223_cast)[name = tensor<string, []>("input_225_cast")];
            tensor<int32, [2]> var_746 = const()[name = tensor<string, []>("op_746"), val = tensor<int32, [2]>([1, 1])];
            tensor<int32, [2]> var_748 = const()[name = tensor<string, []>("op_748"), val = tensor<int32, [2]>([1, 1])];
            tensor<string, []> input_227_pad_type_0 = const()[name = tensor<string, []>("input_227_pad_type_0"), val = tensor<string, []>("custom")];
            tensor<int32, [4]> input_227_pad_0 = const()[name = tensor<string, []>("input_227_pad_0"), val = tensor<int32, [4]>([1, 1, 1, 1])];
            tensor<fp16, [64, 64, 3, 3]> model_model_22_cv2_2_1_conv_weight_to_fp16_palettized = constexpr_lut_to_dense()[indices = tensor<uint8, [36864]>(BLOBFILE(path = tensor<string, []>("@model_path/weights/weight.bin"), offset = tensor<uint64, []>(10396928))), lut = tensor<fp16, [256]>(BLOBFILE(path = tensor<string, []>("@model_path/weights/weight.bin"), offset = tensor<uint64, []>(10433856))), name = tensor<string, []>("model_model_22_cv2_2_1_conv_weight_to_fp16_palettized"), shape = tensor<uint32, [4]>([64, 64, 3, 3])];
            tensor<fp16, [64]> model_model_22_cv2_2_1_conv_bias_to_fp16 = const()[name = tensor<string, []>("model_model_22_cv2_2_1_conv_bias_to_fp16"), val = tensor<fp16, [64]>(BLOBFILE(path = tensor<string, []>("@model_path/weights/weight.bin"), offset = tensor<uint64, []>(10434432)))];
            tensor<fp16, [1, 64, 15, 15]> input_227_cast = conv(bias = model_model_22_cv2_2_1_conv_bias_to_fp16, dilations = var_748, groups = var_19, pad = input_227_pad_0, pad_type = input_227_pad_type_0, strides = var_746, weight = model_model_22_cv2_2_1_conv_weight_to_fp16_palettized, x = input_225_cast)[name = tensor<string, []>("input_227_cast")];
            tensor<fp16, [1, 64, 15, 15]> input_229_cast = silu(x = input_227_cast)[name = tensor<string, []>("input_229_cast")];
            tensor<int32, [2]> var_754 = const()[name = tensor<string, []>("op_754"), val = tensor<int32, [2]>([1, 1])];
            tensor<int32, [2]> var_756 = const()[name = tensor<string, []>("op_756"), val = tensor<int32, [2]>([1, 1])];
            tensor<string, []> var_758_pad_type_0 = const()[name = tensor<string, []>("op_758_pad_type_0"), val = tensor<string, []>("custom")];
            tensor<int32, [4]> var_758_pad_0 = const()[name = tensor<string, []>("op_758_pad_0"), val = tensor<int32, [4]>([0, 0, 0, 0])];
            tensor<fp16, [64, 64, 1, 1]> model_model_22_cv2_2_2_weight_to_fp16_palettized = constexpr_lut_to_dense()[indices = tensor<uint8, [4096]>(BLOBFILE(path = tensor<string, []>("@model_path/weights/weight.bin"), offset = tensor<uint64, []>(10434624))), lut = tensor<fp16, [256]>(BLOBFILE(path = tensor<string, []>("@model_path/weights/weight.bin"), offset = tensor<uint64, []>(10438784))), name = tensor<string, []>("model_model_22_cv2_2_2_weight_to_fp16_palettized"), shape = tensor<uint32, [4]>([64, 64, 1, 1])];
            tensor<fp16, [64]> model_model_22_cv2_2_2_bias_to_fp16 = const()[name = tensor<string, []>("model_model_22_cv2_2_2_bias_to_fp16"), val = tensor<fp16, [64]>(BLOBFILE(path = tensor<string, []>("@model_path/weights/weight.bin"), offset = tensor<uint64, []>(10439360)))];
            tensor<fp16, [1, 64, 15, 15]> var_758_cast = conv(bias = model_model_22_cv2_2_2_bias_to_fp16, dilations = var_756, groups = var_19, pad = var_758_pad_0, pad_type = var_758_pad_type_0, strides = var_754, weight = model_model_22_cv2_2_2_weight_to_fp16_palettized, x = input_229_cast)[name = tensor<string, []>("op_758_cast")];
            tensor<int32, [2]> var_765 = const()[name = tensor<string, []>("op_765"), val = tensor<int32, [2]>([1, 1])];
            tensor<int32, [2]> var_767 = const()[name = tensor<string, []>("op_767"), val = tensor<int32, [2]>([1, 1])];
            tensor<string, []> input_231_pad_type_0 = const()[name = tensor<string, []>("input_231_pad_type_0"), val = tensor<string, []>("custom")];
            tensor<int32, [4]> input_231_pad_0 = const()[name = tensor<string, []>("input_231_pad_0"), val = tensor<int32, [4]>([1, 1, 1, 1])];
            tensor<fp16, [128, 512, 3, 3]> model_model_22_cv3_2_0_conv_weight_to_fp16_palettized = constexpr_lut_to_dense()[indices = tensor<uint8, [589824]>(BLOBFILE(path = tensor<string, []>("@model_path/weights/weight.bin"), offset = tensor<uint64, []>(10439552))), lut = tensor<fp16, [256]>(BLOBFILE(path = tensor<string, []>("@model_path/weights/weight.bin"), offset = tensor<uint64, []>(11029440))), name = tensor<string, []>("model_model_22_cv3_2_0_conv_weight_to_fp16_palettized"), shape = tensor<uint32, [4]>([128, 512, 3, 3])];
            tensor<fp16, [128]> model_model_22_cv3_2_0_conv_bias_to_fp16 = const()[name = tensor<string, []>("model_model_22_cv3_2_0_conv_bias_to_fp16"), val = tensor<fp16, [128]>(BLOBFILE(path = tensor<string, []>("@model_path/weights/weight.bin"), offset = tensor<uint64, []>(11030016)))];
            tensor<fp16, [1, 128, 15, 15]> input_231_cast = conv(bias = model_model_22_cv3_2_0_conv_bias_to_fp16, dilations = var_767, groups = var_19, pad = input_231_pad_0, pad_type = input_231_pad_type_0, strides = var_765, weight = model_model_22_cv3_2_0_conv_weight_to_fp16_palettized, x = input_221_cast)[name = tensor<string, []>("input_231_cast")];
            tensor<fp16, [1, 128, 15, 15]> input_233_cast = silu(x = input_231_cast)[name = tensor<string, []>("input_233_cast")];
            tensor<int32, [2]> var_774 = const()[name = tensor<string, []>("op_774"), val = tensor<int32, [2]>([1, 1])];
            tensor<int32, [2]> var_776 = const()[name = tensor<string, []>("op_776"), val = tensor<int32, [2]>([1, 1])];
            tensor<string, []> input_235_pad_type_0 = const()[name = tensor<string, []>("input_235_pad_type_0"), val = tensor<string, []>("custom")];
            tensor<int32, [4]> input_235_pad_0 = const()[name = tensor<string, []>("input_235_pad_0"), val = tensor<int32, [4]>([1, 1, 1, 1])];
            tensor<fp16, [128, 128, 3, 3]> model_model_22_cv3_2_1_conv_weight_to_fp16_palettized = constexpr_lut_to_dense()[indices = tensor<uint8, [147456]>(BLOBFILE(path = tensor<string, []>("@model_path/weights/weight.bin"), offset = tensor<uint64, []>(11030336))), lut = tensor<fp16, [256]>(BLOBFILE(path = tensor<string, []>("@model_path/weights/weight.bin"), offset = tensor<uint64, []>(11177856))), name = tensor<string, []>("model_model_22_cv3_2_1_conv_weight_to_fp16_palettized"), shape = tensor<uint32, [4]>([128, 128, 3, 3])];
            tensor<fp16, [128]> model_model_22_cv3_2_1_conv_bias_to_fp16 = const()[name = tensor<string, []>("model_model_22_cv3_2_1_conv_bias_to_fp16"), val = tensor<fp16, [128]>(BLOBFILE(path = tensor<string, []>("@model_path/weights/weight.bin"), offset = tensor<uint64, []>(11178432)))];
            tensor<fp16, [1, 128, 15, 15]> input_235_cast = conv(bias = model_model_22_cv3_2_1_conv_bias_to_fp16, dilations = var_776, groups = var_19, pad = input_235_pad_0, pad_type = input_235_pad_type_0, strides = var_774, weight = model_model_22_cv3_2_1_conv_weight_to_fp16_palettized, x = input_233_cast)[name = tensor<string, []>("input_235_cast")];
            tensor<fp16, [1, 128, 15, 15]> input_237_cast = silu(x = input_235_cast)[name = tensor<string, []>("input_237_cast")];
            tensor<int32, [2]> var_782 = const()[name = tensor<string, []>("op_782"), val = tensor<int32, [2]>([1, 1])];
            tensor<int32, [2]> var_784 = const()[name = tensor<string, []>("op_784"), val = tensor<int32, [2]>([1, 1])];
            tensor<string, []> var_786_pad_type_0 = const()[name = tensor<string, []>("op_786_pad_type_0"), val = tensor<string, []>("custom")];
            tensor<int32, [4]> var_786_pad_0 = const()[name = tensor<string, []>("op_786_pad_0"), val = tensor<int32, [4]>([0, 0, 0, 0])];
            tensor<fp16, [1, 128, 1, 1]> model_model_22_cv3_2_2_weight_to_fp16 = const()[name = tensor<string, []>("model_model_22_cv3_2_2_weight_to_fp16"), val = tensor<fp16, [1, 128, 1, 1]>(BLOBFILE(path = tensor<string, []>("@model_path/weights/weight.bin"), offset = tensor<uint64, []>(11178752)))];
            tensor<fp16, [1]> model_model_22_cv3_2_2_bias_to_fp16 = const()[name = tensor<string, []>("model_model_22_cv3_2_2_bias_to_fp16"), val = tensor<fp16, [1]>([-0x1.87p+2])];
            tensor<fp16, [1, 1, 15, 15]> var_786_cast = conv(bias = model_model_22_cv3_2_2_bias_to_fp16, dilations = var_784, groups = var_19, pad = var_786_pad_0, pad_type = var_786_pad_type_0, strides = var_782, weight = model_model_22_cv3_2_2_weight_to_fp16, x = input_237_cast)[name = tensor<string, []>("op_786_cast")];
            tensor<bool, []> xi_interleave_0 = const()[name = tensor<string, []>("xi_interleave_0"), val = tensor<bool, []>(false)];
            tensor<fp16, [1, 65, 15, 15]> xi_cast = concat(axis = var_19, interleave = xi_interleave_0, values = (var_758_cast, var_786_cast))[name = tensor<string, []>("xi_cast")];
            tensor<int32, [3]> var_789 = const()[name = tensor<string, []>("op_789"), val = tensor<int32, [3]>([1, 65, -1])];
            tensor<fp16, [1, 65, 3600]> var_790_cast = reshape(shape = var_789, x = xi_1_cast)[name = tensor<string, []>("op_790_cast")];
            tensor<int32, [3]> var_791 = const()[name = tensor<string, []>("op_791"), val = tensor<int32, [3]>([1, 65, -1])];
            tensor<fp16, [1, 65, 900]> var_792_cast = reshape(shape = var_791, x = xi_3_cast)[name = tensor<string, []>("op_792_cast")];
            tensor<int32, [3]> var_793 = const()[name = tensor<string, []>("op_793"), val = tensor<int32, [3]>([1, 65, -1])];
            tensor<fp16, [1, 65, 225]> var_794_cast = reshape(shape = var_793, x = xi_cast)[name = tensor<string, []>("op_794_cast")];
            tensor<bool, []> var_796_interleave_0 = const()[name = tensor<string, []>("op_796_interleave_0"), val = tensor<bool, []>(false)];
            tensor<fp16, [1, 65, 4725]> var_796_cast = concat(axis = var_20, interleave = var_796_interleave_0, values = (var_790_cast, var_792_cast, var_794_cast))[name = tensor<string, []>("op_796_cast")];
            tensor<int32, [2]> var_797 = const()[name = tensor<string, []>("op_797"), val = tensor<int32, [2]>([64, 1])];
            tensor<int32, []> var_798_axis_0 = const()[name = tensor<string, []>("op_798_axis_0"), val = tensor<int32, []>(1)];
            tensor<fp16, [1, 64, 4725]> var_798_cast_0, tensor<fp16, [1, 1, 4725]> var_798_cast_1 = split(axis = var_798_axis_0, split_sizes = var_797, x = var_796_cast)[name = tensor<string, []>("op_798_cast")];
            tensor<int32, [4]> var_804 = const()[name = tensor<string, []>("op_804"), val = tensor<int32, [4]>([1, 4, 16, 4725])];
            tensor<fp16, [1, 4, 16, 4725]> var_805_cast = reshape(shape = var_804, x = var_798_cast_0)[name = tensor<string, []>("op_805_cast")];
            tensor<int32, [4]> var_806_perm_0 = const()[name = tensor<string, []>("op_806_perm_0"), val = tensor<int32, [4]>([0, 2, 1, 3])];
            tensor<fp16, [1, 16, 4, 4725]> transpose_1 = transpose(perm = var_806_perm_0, x = var_805_cast)[name = tensor<string, []>("transpose_1")];
            tensor<fp16, [1, 16, 4, 4725]> input_cast = softmax(axis = var_19, x = transpose_1)[name = tensor<string, []>("input_cast")];
            tensor<int32, [2]> var_809 = const()[name = tensor<string, []>("op_809"), val = tensor<int32, [2]>([1, 1])];
            tensor<int32, [2]> var_811 = const()[name = tensor<string, []>("op_811"), val = tensor<int32, [2]>([1, 1])];
            tensor<string, []> var_813_pad_type_0 = const()[name = tensor<string, []>("op_813_pad_type_0"), val = tensor<string, []>("custom")];
            tensor<int32, [4]> var_813_pad_0 = const()[name = tensor<string, []>("op_813_pad_0"), val = tensor<int32, [4]>([0, 0, 0, 0])];
            tensor<fp16, [1, 16, 1, 1]> model_model_22_dfl_conv_weight_to_fp16 = const()[name = tensor<string, []>("model_model_22_dfl_conv_weight_to_fp16"), val = tensor<fp16, [1, 16, 1, 1]>(BLOBFILE(path = tensor<string, []>("@model_path/weights/weight.bin"), offset = tensor<uint64, []>(11179072)))];
            tensor<fp16, [1, 1, 4, 4725]> var_813_cast = conv(dilations = var_811, groups = var_19, pad = var_813_pad_0, pad_type = var_813_pad_type_0, strides = var_809, weight = model_model_22_dfl_conv_weight_to_fp16, x = input_cast)[name = tensor<string, []>("op_813_cast")];
            tensor<int32, [3]> var_814 = const()[name = tensor<string, []>("op_814"), val = tensor<int32, [3]>([1, 4, 4725])];
            tensor<fp16, [1, 4, 4725]> distance_cast = reshape(shape = var_814, x = var_813_cast)[name = tensor<string, []>("distance_cast")];
            tensor<int32, [2]> var_817_split_sizes_0 = const()[name = tensor<string, []>("op_817_split_sizes_0"), val = tensor<int32, [2]>([2, 2])];
            tensor<int32, []> var_817_axis_0 = const()[name = tensor<string, []>("op_817_axis_0"), val = tensor<int32, []>(1)];
            tensor<fp16, [1, 2, 4725]> var_817_cast_0, tensor<fp16, [1, 2, 4725]> var_817_cast_1 = split(axis = var_817_axis_0, split_sizes = var_817_split_sizes_0, x = distance_cast)[name = tensor<string, []>("op_817_cast")];
            tensor<fp16, [1, 2, 4725]> anchor_points_to_fp16_palettized = constexpr_lut_to_dense()[indices = tensor<uint8, [9450]>(BLOBFILE(path = tensor<string, []>("@model_path/weights/weight.bin"), offset = tensor<uint64, []>(11179200))), lut = tensor<fp16, [256]>(BLOBFILE(path = tensor<string, []>("@model_path/weights/weight.bin"), offset = tensor<uint64, []>(11188736))), name = tensor<string, []>("anchor_points_to_fp16_palettized"), shape = tensor<uint32, [3]>([1, 2, 4725])];
            tensor<fp16, [1, 2, 4725]> x1y1_cast = sub(x = anchor_points_to_fp16_palettized, y = var_817_cast_0)[name = tensor<string, []>("x1y1_cast")];
            tensor<fp16, [1, 2, 4725]> x2y2_cast = add(x = anchor_points_to_fp16_palettized, y = var_817_cast_1)[name = tensor<string, []>("x2y2_cast")];
            tensor<fp16, [1, 2, 4725]> var_821_cast = add(x = x1y1_cast, y = x2y2_cast)[name = tensor<string, []>("op_821_cast")];
            tensor<fp16, []> _inversed_c_xy_y_0_to_fp16 = const()[name = tensor<string, []>("_inversed_c_xy_y_0_to_fp16"), val = tensor<fp16, []>(0x1p-1)];
            tensor<fp16, [1, 2, 4725]> _inversed_c_xy_cast = mul(x = var_821_cast, y = _inversed_c_xy_y_0_to_fp16)[name = tensor<string, []>("_inversed_c_xy_cast")];
            tensor<fp16, [1, 2, 4725]> wh_cast = sub(x = x2y2_cast, y = x1y1_cast)[name = tensor<string, []>("wh_cast")];
            tensor<bool, []> var_826_interleave_0 = const()[name = tensor<string, []>("op_826_interleave_0"), val = tensor<bool, []>(false)];
            tensor<fp16, [1, 4, 4725]> var_826_cast = concat(axis = var_19, interleave = var_826_interleave_0, values = (_inversed_c_xy_cast, wh_cast))[name = tensor<string, []>("op_826_cast")];
            tensor<fp16, [1, 4725]> op_8_to_fp16_palettized = constexpr_lut_to_dense()[indices = tensor<uint8, [4725]>(BLOBFILE(path = tensor<string, []>("@model_path/weights/weight.bin"), offset = tensor<uint64, []>(11189312))), lut = tensor<fp16, [256]>(BLOBFILE(path = tensor<string, []>("@model_path/weights/weight.bin"), offset = tensor<uint64, []>(11194112))), name = tensor<string, []>("op_8_to_fp16_palettized"), shape = tensor<uint32, [2]>([1, 4725])];
            tensor<fp16, [1, 4, 4725]> dbox_cast = mul(x = var_826_cast, y = op_8_to_fp16_palettized)[name = tensor<string, []>("dbox_cast")];
            tensor<fp16, [1, 1, 4725]> var_828_cast = sigmoid(x = var_798_cast_1)[name = tensor<string, []>("op_828_cast")];
            tensor<bool, []> var_830_interleave_0 = const()[name = tensor<string, []>("op_830_interleave_0"), val = tensor<bool, []>(false)];
            tensor<fp16, [1, 5, 4725]> var_830_cast = concat(axis = var_19, interleave = var_830_interleave_0, values = (dbox_cast, var_828_cast))[name = tensor<string, []>("op_830_cast")];
            tensor<int32, [3]> var_833_begin_0 = const()[name = tensor<string, []>("op_833_begin_0"), val = tensor<int32, [3]>([0, 0, 0])];
            tensor<int32, [3]> var_833_end_0 = const()[name = tensor<string, []>("op_833_end_0"), val = tensor<int32, [3]>([1, 5, 4725])];
            tensor<bool, [3]> var_833_end_mask_0 = const()[name = tensor<string, []>("op_833_end_mask_0"), val = tensor<bool, [3]>([false, true, true])];
            tensor<bool, [3]> var_833_squeeze_mask_0 = const()[name = tensor<string, []>("op_833_squeeze_mask_0"), val = tensor<bool, [3]>([true, false, false])];
            tensor<fp16, [5, 4725]> var_833_cast = slice_by_index(begin = var_833_begin_0, end = var_833_end_0, end_mask = var_833_end_mask_0, squeeze_mask = var_833_squeeze_mask_0, x = var_830_cast)[name = tensor<string, []>("op_833_cast")];
            tensor<int32, [2]> var_836_perm_0 = const()[name = tensor<string, []>("op_836_perm_0"), val = tensor<int32, [2]>([1, 0])];
            tensor<int32, [2]> var_839 = const()[name = tensor<string, []>("op_839"), val = tensor<int32, [2]>([4, 1])];
            tensor<int32, []> var_841_axis_0 = const()[name = tensor<string, []>("op_841_axis_0"), val = tensor<int32, []>(1)];
            tensor<fp16, [4725, 5]> transpose_0 = transpose(perm = var_836_perm_0, x = var_833_cast)[name = tensor<string, []>("transpose_0")];
            tensor<fp16, [4725, 4]> var_841_cast_0, tensor<fp16, [4725, 1]> var_841_cast_1 = split(axis = var_841_axis_0, split_sizes = var_839, x = transpose_0)[name = tensor<string, []>("op_841_cast")];
            tensor<string, []> var_841_cast_1_to_fp32_dtype_0 = const()[name = tensor<string, []>("op_841_cast_1_to_fp32_dtype_0"), val = tensor<string, []>("fp32")];
            tensor<fp16, []> var_844_to_fp16 = const()[name = tensor<string, []>("op_844_to_fp16"), val = tensor<fp16, []>(0x1.11p-9)];
            tensor<fp16, [4725, 4]> var_845_cast = mul(x = var_841_cast_0, y = var_844_to_fp16)[name = tensor<string, []>("op_845_cast")];
            tensor<string, []> var_845_cast_to_fp32_dtype_0 = const()[name = tensor<string, []>("op_845_cast_to_fp32_dtype_0"), val = tensor<string, []>("fp32")];
            tensor<fp32, [4725, 1]> var_841_1 = cast(dtype = var_841_cast_1_to_fp32_dtype_0, x = var_841_cast_1)[name = tensor<string, []>("cast_0")];
            tensor<fp32, [4725, 4]> var_845 = cast(dtype = var_845_cast_to_fp32_dtype_0, x = var_845_cast)[name = tensor<string, []>("cast_1")];
        } -> (var_841_1, var_845);
}